wake_word_three_lite.tflite (tflite, 71280 bytes, 9 tensors)

sequential_3/conv2d_9/BiasAdd/ReadVariableOp f4 [32]
0	0x3e49827d	0.19678684
1	0x3e9c4fe0	0.3052969
2	0xbecdfaa8	-0.40230298
3	0x3ea1ee9f	0.31627366
4	0xbeec0fc1	-0.4610577
5	0xbf2ab742	-0.6668588
6	0xbe9ef76b	-0.3104814
7	0xbeff760c	-0.4989475
8	0x3f6ecd4e	0.9328202
9	0xbef5f91a	-0.48041612
10	0xbed0fc0d	-0.408173
11	0x3c8c6df5	0.017142275
12	0x3e900fed	0.2813715
13	0xbf2465a8	-0.64217615
14	0xbee6b30c	-0.45058477
15	0x3ee2b3a4	0.4427768
16	0xbf205f04	-0.6264498
17	0xbf295212	-0.66140854
18	0x3f825f4c	1.0185332
19	0x3eb47278	0.35243583
20	0xbf15a6d0	-0.5845766
21	0xbf20d6f9	-0.6282802
22	0x3eb86505	0.36014572
23	0xbf34be1f	-0.706026
24	0xbe8d0795	-0.27544847
25	0xbf192606	-0.59823644
26	0xbf85b428	-1.0445604
27	0xbebd1d72	-0.36936527
28	0xbc90e5c1	-0.01768768
29	0xbe71787e	-0.2358112
30	0x3f5ee1a3	0.87063044
31	0xbd14afb2	-0.03630037

sequential_3/conv2d_10/BiasAdd/ReadVariableOp f4 [32]
0	0xbe8ba068	-0.27270818
1	0x3db66b29	0.08907158
2	0x3db4e6ef	0.088331096
3	0xbe0cc31c	-0.13746303
4	0x3c685031	0.014179275
5	0xbd41f5cf	-0.047353562
6	0x3deb2a60	0.11482692
7	0xbe180a1a	-0.14847603
8	0x3f4f7d6e	0.81050766
9	0x3ca23947	0.019802703
10	0xbe5296a8	-0.20565283
11	0xbe0d20bc	-0.13782018
12	0xbe19602e	-0.14978096
13	0x3d4b1b5d	0.049586643
14	0xbd11dce5	-0.035611052
15	0xbce68fb7	-0.0281447
16	0x3c8a3c5d	0.016874487
17	0xbe181137	-0.14850317
18	0x3f8e277d	1.1105801
19	0xbd74df3c	-0.059783205
20	0xbe6ec22b	-0.23316257
21	0xbdf1ca7a	-0.118061975
22	0xbdf7f031	-0.1210636
23	0xbe8c4876	-0.27399033
24	0x3e312069	0.1729752
25	0xbdb3289d	-0.08747981
26	0x3d45a412	0.048252173
27	0x3e5aae23	0.2135549
28	0xbe1c8abc	-0.15287298
29	0xbda9ef68	-0.08297616
30	0xbe6e5639	-0.23275079
31	0x3ddbf506	0.10740094

sequential_3/conv2d_11/BiasAdd/ReadVariableOp f4 [64]
0	0xbba83803	-0.0051336302
1	0xbc2cad66	-0.010539388
2	0xbd41b80f	-0.047294673
3	0xbce105cd	-0.027468586
4	0xbc9c77e5	-0.019100139
5	0x3da93140	0.08261347
6	0x3e2b41c0	0.167243
7	0xbd5b4dfa	-0.05354116
8	0x3d9d1bf9	0.07671351
9	0xbcf44098	-0.029815957
10	0xbe4b9016	-0.19879183
11	0xbade21be	-0.0016947312
12	0xbc128a62	-0.008944126
13	0xbd2257af	-0.039634403
14	0xbd14ec0e	-0.03635793
15	0x3c550791	0.013002292
16	0xbd7482b4	-0.05969496
17	0xbd32d05b	-0.043655735
18	0x3da9498c	0.08265981
19	0xbb4775e9	-0.003043527
20	0xbe4d85af	-0.20070527
21	0x3d8cda51	0.06877578
22	0xbd47c1fb	-0.04876898
23	0x3b78bac3	0.0037953116
24	0xbca99fa8	-0.020706013
25	0xbd69d2dd	-0.05708586
26	0x3cea0917	0.028568788
27	0xbcffbbe2	-0.03121752
28	0xbd56658f	-0.052342948
29	0xbdbfdd67	-0.09368401
30	0xbd2b1f57	-0.041777935
31	0xbd9f2b55	-0.07771937
32	0x3df0bb59	0.11754484
33	0xbd09cb14	-0.033640936
34	0xbc89b27c	-0.01680874
35	0x3e7fe77b	0.24990647
36	0x3a77a16c	0.0009446356
37	0xbe4e64cd	-0.2015564
38	0xbd4568d0	-0.04819566
39	0xbd30167f	-0.042990204
40	0xbcf36cbb	-0.029714933
41	0xbd3a677e	-0.045508854
42	0x3d15de1d	0.036588777
43	0xbce0139a	-0.027353097
44	0xbd5845b7	-0.05280086
45	0xbd935351	-0.07193626
46	0xbd17629e	-0.036959283
47	0xbba7f3be	-0.005125492
48	0x3e02f2ca	0.12787929
49	0x3b8e5c12	0.0043444717
50	0xbdbca6e0	-0.092115164
51	0xbd752be6	-0.059856318
52	0xbd708d99	-0.058728788
53	0xbd3ef355	-0.04661878
54	0xbcb978b8	-0.022640571
55	0xbd2868ff	-0.041115757
56	0xbcd94d10	-0.026526004
57	0xbb874668	-0.004128266
58	0xbafa92c5	-0.0019117227
59	0x3c90050a	0.017580528
60	0xbda3a48f	-0.079903714
61	0x3dd98c4f	0.10622465
62	0xbddcc228	-0.1077922
63	0xbd465b0c	-0.048426673

sequential_3/conv2d_9/Conv2D f4 [32, 2, 2, 1]
0	0xbdf6b12a	-0.1204551
1	0x3e325438	0.1741494
2	0x3dea58e0	0.11442733
3	0xbe67115d	-0.22565217
4	0x3e309236	0.17243275
5	0xbe5ec425	-0.2175451
6	0x3e6a5411	0.22883631
7	0xbe0773e4	-0.13227803
8	0x3d2a18c3	0.04152752
9	0xbb9b675c	-0.004742546
10	0xbc14a688	-0.009072907
11	0xbc84bc82	-0.016203169
12	0x3e3f968c	0.18709773
13	0xbe15d6f4	-0.1463278
14	0xbd3f9830	-0.046775997
15	0x3d9e4ce5	0.0772951
16	0x3c96f6bb	0.018428197
17	0xbbc1a79a	-0.0059098722
18	0xbca48db8	-0.020087108
19	0xbcbc3cff	-0.022978304
20	0xbc765bd2	-0.01503654
21	0x3d39848e	0.04529243
22	0x3bc023f7	0.0058636623
23	0xbb4c0047	-0.0031128095
24	0x3c8c7414	0.017145194
25	0x3ce619fa	0.028088558
26	0x3d62f3ed	0.055408407
27	0xbd036e4c	-0.03208761
28	0x3cb24400	0.02176094
29	0x3ca06ddf	0.01958364
30	0x3c5b993e	0.013403235
31	0xbd460205	-0.04834177
32	0xbcdd6981	-0.027027847
33	0xbe48e1fb	-0.19617455
34	0xbed1dea1	-0.40990165
35	0x3ecc0f5b	0.39855465
36	0xbcf95a6a	-0.03043862
37	0x3d5549e6	0.05207243
38	0xb9796400	-0.00023783743
39	0xba407529	-0.0007341677
40	0x3cece4c4	0.028917678
41	0xbc3d37a6	-0.011548912
42	0xbd21370f	-0.03935915
43	0x3d615baa	0.05501906
44	0x3e6b208a	0.22961631
45	0xbe3282da	-0.17432728
46	0xbe47dc9b	-0.19517748
47	0x3d1892a5	0.037249226
48	0x3d9768d4	0.07393041
49	0x3bce5beb	0.0062975786
50	0x3e10f3cb	0.141555
51	0xbd764d26	-0.06013217
52	0x3d5cf958	0.05394873
53	0xbcaa6fa9	-0.020805197
54	0xbc8c692a	-0.01713999
55	0x3d0eeb12	0.03489215
56	0x3ce88f2a	0.028388578
57	0xba6edf88	-0.0009112288
58	0xbc1c5c62	-0.00954351
59	0xbc221c84	-0.009894494
60	0x3d518d96	0.051160417
61	0xbe7b4021	-0.24536182
62	0xbe8c6717	-0.274224
63	0x3d4d16ba	0.050070502
64	0x3d66d0ae	0.056351356
65	0xbcecd027	-0.028907849
66	0xbcfa378c	-0.030544065
67	0x3d8a1acc	0.06743392
68	0x3d23cc8d	0.039989997
69	0xbca5a2cf	-0.020219235
70	0xbda55506	-0.080728576
71	0x3dbc4934	0.0919365
72	0x3e879e83	0.26488122
73	0xbd97c67a	-0.07410903
74	0xbebfcfd2	-0.37463242
75	0x3ebccc07	0.3687441
76	0xbe771b65	-0.24131544
77	0x3e5cb05b	0.2155165
78	0xbe0f1fa1	-0.13976909
79	0x3d4a11ba	0.04933331
80	0xbc2d4cc4	-0.010577384
81	0x3d6b81b2	0.057496734
82	0xbb7a0fd6	-0.0038156412
83	0x3c88a1e9	0.016678767
84	0x3cd33c44	0.025785573
85	0xbc35f53a	-0.01110583
86	0xbd9cd569	-0.07657892
87	0x3db17aff	0.08666038
88	0x3e4e40b3	0.20141868
89	0xbe55ca0b	-0.20877855
90	0x3d8fc1e0	0.070194006
91	0x3d7de871	0.06198925
92	0x3b66e3e9	0.003523106
93	0xbc1785e6	-0.0092482325
94	0xbdd88587	-0.10572343
95	0x3dd6f52c	0.104959816
96	0xbb07ba91	-0.0020710567
97	0x3c592c30	0.013255164
98	0x3cfcb137	0.030846221
99	0xbcd6ab90	-0.026204854
100	0xbc429a68	-0.011877634
101	0x3d0c042e	0.034183674
102	0x3d0b9974	0.03408189
103	0xbd54d0b6	-0.051956855
104	0xbd1571f5	-0.03648563
105	0x3d981907	0.074266486
106	0x3d0fd81b	0.035118204
107	0x3c3ee2c3	0.011650744
108	0xbb8ca24b	-0.0042918078
109	0x3c4001d6	0.011719188
110	0x39cbbf6a	0.00038861792
111	0xbbcead46	-0.006307277
112	0xbe136934	-0.143956
113	0x3e2152af	0.15754198
114	0xbe4b5430	-0.19856334
115	0x3e3b2fdf	0.1827998
116	0xbd70e32a	-0.05881039
117	0x3d1c5180	0.038163662
118	0x3c33b205	0.010967736
119	0xbcd26ce5	-0.02568669
120	0xbe9558c8	-0.29169297
121	0x3eb29d31	0.34885553
122	0x3eb988a8	0.36237073
123	0xbe77ce35	-0.24199755
124	0xbdf9f14c	-0.12204227
125	0x3da80f49	0.082060404
126	0x3dee6421	0.11640192
127	0xbd807196	-0.06271665

sequential_3/conv2d_10/Conv2D f4 [32, 2, 2, 32]
0	0x3e5c2915	0.21500047
1	0xbeb5e0ff	-0.3552322
2	0x3e66f9e9	0.2255627
3	0x3bc416a5	0.0059841448
4	0xbdf3ccbe	-0.11904286
5	0x3e3bb429	0.18330444
6	0xbec0a3ff	-0.3762512
7	0xbe82c0ac	-0.25537622
8	0x3dd5840a	0.10425575
9	0xbec13724	-0.3773738
10	0x3ecdc3bc	0.40188396
11	0xbdf99d4c	-0.12188205
12	0xbeac7dd3	-0.33689746
13	0x3d874396	0.06604688
14	0x3d8447e9	0.06459028
15	0xbdc12349	-0.09430558
16	0x3ee402d2	0.44533402
17	0x3ee93504	0.4554826
18	0xbebec2f1	-0.37258103
19	0xbe0919c8	-0.13388741
20	0x3d8e6c96	0.06954305
21	0x3f1ac339	0.60454136
22	0xbe699f52	-0.22814682
23	0x3e2c24d8	0.1681093
24	0xbe89eafb	-0.26937088
25	0x3e93416b	0.28760847
26	0x3e37df64	0.1795631
27	0x3e3a2a56	0.18180212
28	0xbd9486b9	-0.07252259
29	0x3c5cf775	0.013486733
30	0x3ea93094	0.33044875
31	0xbeda77f2	-0.42669636
32	0xbd6711e7	-0.056413557
33	0xbe109d63	-0.14122538
34	0x3e660f1b	0.224667
35	0xbca279b9	-0.019833433
36	0xbd85f5f7	-0.06541055
37	0x3efd12f2	0.49428517
38	0xbd0ef18d	-0.03489833
39	0xbe9141a3	-0.2837039
40	0x3ddaeda7	0.1068986
41	0x3e2eba61	0.17063285
42	0x3ddac9c0	0.10683012
43	0x3d95d46e	0.07315908
44	0xbecd23ce	-0.4006638
45	0xbd47fdb2	-0.048825927
46	0x3e9f132d	0.31069317
47	0x3d61c58c	0.055120036
48	0xbd9961ee	-0.07489382
49	0x3ec9640c	0.39334142
50	0x3e1a3039	0.15057458
51	0xbe7b1376	-0.24519143
52	0x3eb1f25e	0.34755224
53	0x3f2b9089	0.6701742
54	0x3af43d14	0.0018633925
55	0x3e1909e0	0.14945173
56	0xbe47cd9c	-0.19512028
57	0x3e8bb9ab	0.2729009
58	0x3f1386a8	0.57627344
59	0x3c8f2fe3	0.017478889
60	0x3e252877	0.16128717
61	0xbdf8cf6d	-0.12148938
62	0xbbfb140b	-0.0076623014
63	0x3c91959f	0.01777154
64	0x3e3985a8	0.18117392
65	0x3e18ee6c	0.149347
66	0x3ec520c1	0.38501552
67	0x3d0cfa6f	0.03441852
68	0x3e440759	0.19143428
69	0x3ed32545	0.41239372
70	0x3e4f0107	0.20215236
71	0x3e487216	0.1957477
72	0xbe408e9b	-0.188044
73	0x3e8aa17b	0.27076325
74	0xbcc8a877	-0.024494393
75	0x3d8e6d8f	0.069544904
76	0xbd89a1e6	-0.06720333
77	0x3eca373f	0.39495274
78	0x3eac4cfb	0.3365248
79	0xbde0dc9b	-0.10979577
80	0x3f3eb0e6	0.74488676
81	0x3ecf9cb0	0.4054923
82	0x3e5624d1	0.20912482
83	0x3c82d441	0.015970351
84	0xbdad3990	-0.08458245
85	0x3dc3be91	0.09557832
86	0x3e1ba8e7	0.1520115
87	0xbe153181	-0.14569665
88	0x3eb93fc6	0.36181468
89	0x3d03391c	0.032036886
90	0x3d8f8e0a	0.07009514
91	0x3b847b98	0.004043054
92	0xbe616200	-0.2201004
93	0x3e86ae1e	0.26304716
94	0xbe620e4f	-0.22075771
95	0x3dbcb17a	0.092135385
96	0x3e0f7cfd	0.14012523
97	0xbd8910a7	-0.06692629
98	0x3d6ddf45	0.058074255
99	0x3d8805dc	0.066417426
100	0x3ea2d841	0.31805614
101	0x3e6c0020	0.23046923
102	0xbdc67037	-0.09689372
103	0x3e45b77c	0.19308275
104	0xbe0bda95	-0.13657601
105	0x3de34459	0.11097021
106	0x3e1f24af	0.15541337
107	0x3dcc9419	0.09989185
108	0xbe187bc0	-0.14890957
109	0x3ec5bf7b	0.3862265
110	0x3ecab11d	0.39588252
111	0x3c5babba	0.013407642
112	0x3f0572b9	0.5212818
113	0x3de5d319	0.11221904
114	0xbe839768	-0.2570145
115	0x3c37f73d	0.01122838
116	0x3e6bf8cf	0.23044132
117	0x3e32bb6e	0.17454311
118	0x3e17992b	0.14804523
119	0x3e9197b9	0.28436068
120	0x3e4ebc42	0.20189002
121	0x3d875d78	0.066096246
122	0x3f136857	0.57581085
123	0x3d5a0a14	0.053232267
124	0xbdd027b6	-0.10163824
125	0xbca41c69	-0.020033078
126	0x3e134892	0.14383152
127	0x3e87b681	0.26506427
128	0xbe0105f0	-0.12599921
129	0xbda3868c	-0.07984647
130	0x3e25416e	0.1613824
131	0xbe9c413f	-0.3051853
132	0x3e6dffee	0.2324216
133	0x3e2ee460	0.17079306
134	0x3dbc55c4	0.09196046
135	0x3e07f3fc	0.13276666
136	0xbd6d9db7	-0.058011737
137	0x3e329c5b	0.17442457
138	0x3edf2b09	0.4358752
139	0x3daa00d8	0.08300942
140	0x3afb5df5	0.0019177782
141	0x3e780c8d	0.24223538
142	0x3e8d4266	0.2758972
143	0xbd786211	-0.0606404
144	0x3dff6d2f	0.12471997
145	0x3e914790	0.2837491
146	0x3d655f45	0.05599906
147	0xbd4bc660	-0.049749732
148	0x3e31661d	0.1732411
149	0x3ea6bf27	0.32567713
150	0xbe63d795	-0.22250207
151	0x3f025a09	0.5091863
152	0xbd78e502	-0.060765274
153	0x3e9fc7f2	0.31207234
154	0x3d8b3cfc	0.06798741
155	0x3e8f5d1c	0.28000724
156	0x3e12dfcf	0.14343189
157	0xbd8c7346	-0.06857924
158	0x3dd9de69	0.106381245
159	0xbe4be2a8	-0.19910681
160	0x3db331d3	0.087497376
161	0xbe447c5e	-0.19188067
162	0x3c4ba78c	0.012430083
163	0xbdc3aa62	-0.09553982
164	0x3cb363af	0.021898119
165	0x3ea65114	0.32483733
166	0x3e5a43a5	0.21314867
167	0x3e25f9e3	0.16208605
168	0x3d021167	0.031754877
169	0x3eee681a	0.46563798
170	0x3dedadd1	0.116054185
171	0xbe0e9f79	-0.13928021
172	0x3c675fdc	0.014121976
173	0x3dd1c942	0.10243465
174	0x3dd05122	0.10171725
175	0x3d8598d2	0.06523289
176	0x3d2dc8d2	0.042427845
177	0x3e289b0c	0.16465396
178	0xbcecbbf7	-0.028898222
179	0xbdb03e0d	-0.08605585
180	0xbd870f46	-0.0659471
181	0x3ea9f751	0.331965
182	0xbe7c2616	-0.24623904
183	0x3e98ed52	0.2986856
184	0x3c2add70	0.010428771
185	0x3e473532	0.19453886
186	0x3e543846	0.20724592
187	0x3e203b4b	0.15647618
188	0x3d8d88a7	0.0691083
189	0x3d01e26d	0.031710077
190	0xbdbe714c	-0.092989534
191	0xbd82b7f9	-0.06382746
192	0x3e681f22	0.22668126
193	0xbd98245e	-0.074288115
194	0x3e8bf320	0.27333927
195	0x3be8870f	0.0070961784
196	0x3efea04e	0.49731678
197	0x3d7c41e8	0.06158629
198	0x3eb5dd79	0.35520533
199	0x3ebf2c8f	0.37338683
200	0xbde179f1	-0.110095866
201	0x3e82d874	0.25555766
202	0x3ec8f66a	0.392505
203	0x3e2111c0	0.15729427
204	0x3dce2b48	0.10066849
205	0x3edbad09	0.42905453
206	0x3e5df78a	0.2167646
207	0x3d1437c2	0.036185987
208	0x3f03a7c6	0.51427877
209	0x3eb8236b	0.35964522
210	0x3e15d33e	0.14631364
211	0x3c85fd65	0.01635618
212	0x3debb0e0	0.115083456
213	0x3e862a66	0.26204222
214	0x3d6491a6	0.055802964
215	0x3e8b40de	0.27197927
216	0x3e14f7ab	0.14547603
217	0x3c8d7b01	0.017270567
218	0x3e470a9f	0.19437645
219	0x3d845110	0.06460774
220	0xbdd7bcf0	-0.10534084
221	0x3d974504	0.073862106
222	0xbd8f465c	-0.06995842
223	0xbd40af90	-0.04704243
224	0x3e5a72f1	0.21332909
225	0x3db0f291	0.08640016
226	0x3ebc8575	0.3682057
227	0x3e1192c6	0.14216146
228	0x3e6ccd15	0.23125108
229	0x3d228d67	0.039685633
230	0x3e1cafbe	0.15301415
231	0x3ebfa651	0.37431577
232	0xbe030859	-0.12796153
233	0x3e2a963f	0.16658877
234	0x3dd169af	0.10225236
235	0x3cd76a38	0.026295766
236	0x3e16fbe4	0.14744526
237	0x3e89ef8a	0.26940566
238	0x3db47ec9	0.08813245
239	0xbe2ffc6d	-0.17186137
240	0x3eb53ce1	0.3539801
241	0x3dfcab72	0.12337388
242	0xbd0dd88d	-0.034630347
243	0xbd6d18a1	-0.057884816
244	0x3e129b96	0.14317164
245	0x3d23fea3	0.040037762
246	0xbd24eff4	-0.0402679
247	0x3e029720	0.12752962
248	0x3f161763	0.58629435
249	0x3e8c995d	0.27460757
250	0x3d965e83	0.073422454
251	0x3de6550e	0.11246692
252	0x3e36a1da	0.17835179
253	0xbd17343a	-0.03691504
254	0x3d8d3861	0.06895519
255	0xbd8ee279	-0.0697679

sequential_3/conv2d_11/Conv2D f4 [64, 2, 2, 32]
0	0x3de82d94	0.11336818
1	0x3eaadc65	0.33371273
2	0xbd8c5057	-0.06851261
3	0xbbde319c	-0.0067808162
4	0x3e9daafc	0.30794513
5	0x3db8da69	0.090260334
6	0xbc8b7d04	-0.017027386
7	0x3e69648b	0.2279226
8	0xbdb3ee1f	-0.08785652
9	0x3de8a8cf	0.11360323
10	0xbdba8582	-0.09107496
11	0x3db0e0e2	0.08636643
12	0x3e099534	0.13435823
13	0x3ddf3c7a	0.10900207
14	0xbc2b6862	-0.0104618985
15	0x3cb01fda	0.021499563
16	0x3e0cd522	0.13753179
17	0xbe0cab02	-0.1373711
18	0xbdabbc3c	-0.08385512
19	0x3d9dd8b7	0.07707351
20	0x3df92ac8	0.12166363
21	0x3e70506d	0.2346818
22	0x3e8c137e	0.2735862
23	0x3dc0dc90	0.09417069
24	0x3dd3ee47	0.10348182
25	0x3d6edaf1	0.058314268
26	0x3dbacf12	0.09121527
27	0x3d09c31e	0.033633344
28	0x3d25839d	0.04040872
29	0xbdd0781d	-0.1017916
30	0xbe1a82dd	-0.15088983
31	0x3e7f385b	0.24923842
32	0x3e2a377f	0.16622733
33	0x3e9a2ece	0.30113834
34	0xbdbaa552	-0.091135636
35	0x3cb5b5ef	0.02218148
36	0x3ea4b4c7	0.32169172
37	0x3e9bf7dd	0.30462542
38	0x3de064f8	0.10956758
39	0x3e34d889	0.17660727
40	0x3cb9c356	0.022676151
41	0x3c39441f	0.011307745
42	0x3e23e962	0.16006997
43	0x3d8924a3	0.06696441
44	0x3dd867a7	0.10566645
45	0xbe196ee8	-0.14983714
46	0x3e1cd3d3	0.1531518
47	0x3e919847	0.2843649
48	0xbcbab328	-0.022790506
49	0xbd188c4e	-0.03724318
50	0x3bc4a394	0.0060009453
51	0x3e38bb05	0.18040092
52	0x3d9c0d77	0.07619756
53	0x3eb7462f	0.35795733
54	0x3e2eed3a	0.17082682
55	0x3e8adc87	0.27121374
56	0x3da3684e	0.07978879
57	0x3d5a0aef	0.053233083
58	0x3e29a614	0.1656726
59	0x3cef3749	0.029201167
60	0x3e99b288	0.3001902
61	0x3dbd9ad1	0.092580445
62	0x3c39272e	0.011300845
63	0x3d8c3527	0.068460755
64	0x3df41156	0.11917369
65	0x3e63c6b6	0.22243771
66	0x3e2f35cd	0.17110367
67	0xbda9a1c1	-0.08282805
68	0x3d426539	0.047459815
69	0x3e0ed283	0.13947491
70	0x3e16337f	0.14668082
71	0xbca995cb	-0.02070131
72	0xbdb4ced5	-0.088285126
73	0x3e730564	0.23732525
74	0x3c87a301	0.016557219
75	0x3e44563d	0.19173522
76	0x3e1a2778	0.15054119
77	0xbd59a914	-0.05313976
78	0x3e1a6f1b	0.15081446
79	0xbd8ca3e6	-0.06867199
80	0x3e06fa8d	0.13181515
81	0xbd3d1415	-0.04616173
82	0xbd7c466a	-0.06159059
83	0x3dde6a9c	0.10860178
84	0x3e57495e	0.21024081
85	0x3eb05b41	0.3444462
86	0x3eac03b5	0.33596578
87	0x3e86005f	0.26172158
88	0x3e2331f3	0.15937023
89	0x3e3e664c	0.1859371
90	0xbd675667	-0.056478884
91	0x3be4f0ef	0.0069867293
92	0x3e86124e	0.2618584
93	0xbdb92845	-0.09040884
94	0x3df166a5	0.11787156
95	0x3ddfe887	0.10933023
96	0x3e24c88a	0.16092125
97	0x3e4b9556	0.19881186
98	0x3e75d573	0.24007206
99	0xbd357470	-0.044300497
100	0x3e4650e7	0.193668
101	0x3ec48a7c	0.38386905
102	0xbcc70cab	-0.024298033
103	0xbd52c79d	-0.051459897
104	0xbd6b51e4	-0.057451144
105	0x3e49f0d1	0.1972077
106	0xbc9ba1d7	-0.01899807
107	0x3e57f836	0.21090779
108	0x3e8731fb	0.2640532
109	0x3d081cec	0.033230707
110	0x3dd8a736	0.10578768
111	0xbd8fbaba	-0.07018037
112	0x3dd2fa17	0.10301607
113	0xbd4b33d4	-0.049609974
114	0x3d3416b6	0.04396697
115	0x3e92d19a	0.28675538
116	0x3da7db35	0.08196107
117	0x3e4d8cb6	0.20073208
118	0x3e6d5756	0.23177847
119	0x3e5ce8da	0.21573201
120	0x3e07deb8	0.13268554
121	0x3db2774a	0.08714159
122	0xbde12ff6	-0.10995476
123	0x3d941954	0.072313935
124	0x3ec57de8	0.3857262
125	0x3d9a4700	0.075330734
126	0xbde2d288	-0.11075312
127	0x3eb304e0	0.34964657
128	0x3e30706c	0.17230386
129	0x3c8e2d07	0.017355455
130	0x3e74dc36	0.23912129
131	0x3dae7cb3	0.08519878
132	0x3ecbbdc9	0.39793232
133	0x3e9b7be9	0.30367973
134	0xbda786d3	-0.081800126
135	0x3f20ab89	0.6276174
136	0xbabadf74	-0.0014257268
137	0x3e6a46cc	0.2287857
138	0xbd958abd	-0.07301853
139	0x3e993f42	0.29931074
140	0x3e5f1580	0.21785545
141	0xbd4c943b	-0.04994605
142	0x3db48a74	0.0881547
143	0xbc8dc4d8	-0.017305776
144	0x3d2a9910	0.041649878
145	0x3db38d77	0.08767217
146	0xbdb8da7c	-0.090260476
147	0x3e1bfd3d	0.15233321
148	0x3e1c8beb	0.1528775
149	0x3eac7c03	0.33688363
150	0x3f0af6a0	0.5428257
151	0x3c44a73d	0.012002763
152	0xbdb4921b	-0.0881693
153	0x3dbd03f8	0.092292726
154	0x3ea53370	0.32265806
155	0xbe397a2e	-0.18113014
156	0x3df4cb18	0.119527996
157	0x3ed32de3	0.41245946
158	0x3e20f1c8	0.15717232
159	0xbb8ef71b	-0.0043629534
160	0x3d2eeb72	0.042705007
161	0x3e21f8e6	0.15817603
162	0x3db210da	0.086946204
163	0xbc83353d	-0.016016597
164	0x3e11eeda	0.14251271
165	0x3e4ce752	0.20010117
166	0x3dc27c7e	0.09496401
167	0x3e9a6051	0.3015161
168	0x3da320ca	0.079652384
169	0x3e15a849	0.14614977
170	0x3e57beb3	0.2106884
171	0x3dbf656a	0.09345515
172	0x3e1bd432	0.15217665
173	0x3d7b8134	0.061402515
174	0xbd80fcae	-0.06298195
175	0x3c296797	0.010339639
176	0x3d055b77	0.03255793
177	0x3c652263	0.013985249
178	0xbd4fefdc	-0.050765857
179	0xbc73b291	-0.0148741165
180	0x3e29c8e9	0.16580547
181	0x3e965583	0.29362115
182	0x3ef0412e	0.46924728
183	0x3dde79cc	0.10863075
184	0x3e549ed2	0.2076371
185	0x3d8d93c8	0.06912953
186	0x3e683ad7	0.22678696
187	0x3df3a6e6	0.11897068
188	0x3e8b851e	0.27249998
189	0x3e6c6625	0.2308584
190	0x3e2eb453	0.17060976
191	0x3dff10a0	0.12454343
192	0x3ce9e22a	0.028550226
193	0x3da987c3	0.082778476
194	0x3ec2c50d	0.38040963
195	0x3e17a27f	0.14808081
196	0x3cd0e094	0.025497712
197	0xbd219a89	-0.039454017
198	0x3ea38164	0.31934655
199	0xbe36015f	-0.1777396
200	0xbd718675	-0.05896612
201	0x3eb85962	0.36005694
202	0x3b941801	0.004519463
203	0x3dac46fb	0.08411976
204	0x3e0618f8	0.13095462
205	0x3d8e3340	0.06943369
206	0x3ec5d89a	0.38641816
207	0x3cc350b0	0.023842186
208	0x3e6d1202	0.231514
209	0x3e819462	0.2530852
210	0xbd9f6f41	-0.07784892
211	0x3e5001ed	0.20313235
212	0x3e820609	0.2539523
213	0x3decae21	0.1155665
214	0x3e5fd5a6	0.21858844
215	0x3e456494	0.19276649
216	0x3e82068d	0.25395623
217	0x3ecf81b4	0.40528643
218	0xbd49a0c8	-0.0492256
219	0x3e090ddd	0.13384195
220	0x3d99a6f2	0.075025454
221	0x3c7fb1e6	0.015606379
222	0x3d3e8491	0.046513144
223	0x3e848c59	0.25888327
224	0x3b45b2f0	0.003016647
225	0x3daa65e9	0.08320219
226	0x3e83c29a	0.25734407
227	0x3e1f467a	0.15554228
228	0x3e44dcf9	0.1922492
229	0x3e4ce2af	0.20008348
230	0x3e293284	0.16523176
231	0x3d8b1ddc	0.067928046
232	0xbc611a5f	-0.0137391975
233	0x3e97844c	0.29593122
234	0x3d1fbca1	0.03899825
235	0x3c82472a	0.015903074
236	0x3e519a6c	0.20469064
237	0xbc51e18b	-0.012810121
238	0x3e1dc63f	0.15407656
239	0x3beabe6b	0.007163813
240	0x3daad08f	0.08340561
241	0x3d8f424b	0.06995066
242	0xbd7c585e	-0.06160771
243	0x3c0e1a54	0.008673269
244	0x3dedfefc	0.116209
245	0x3de44255	0.11145464
246	0x3e0f92d9	0.14020862
247	0x3e64f8d8	0.22360551
248	0x3e87bd91	0.26511815
249	0x3d36ae37	0.044599738
250	0xbc8b88df	-0.017033039
251	0x3e90d4b3	0.28287277
252	0x3e598d9c	0.21245426
253	0xbd1f95b0	-0.038961112
254	0x3d807123	0.06271579
255	0x3ec016ee	0.37517494

sequential_3/dense_6/BiasAdd/ReadVariableOp f4 [64]
0	0xbd80ae6a	-0.06283267
1	0x3f2c8b98	0.67400503
2	0xbdaaee07	-0.08346181
3	0x3f642720	0.891222
4	0xbe18dc87	-0.14927875
5	0x3f620d0e	0.8830117
6	0x3f42f359	0.7615257
7	0xbe2a71a7	-0.16644917
8	0xbcd8f9bc	-0.02648627
9	0x3f2dab14	0.6783917
10	0x3f7b956d	0.9827488
11	0xbd2cf2e9	-0.042223845
12	0xbd9f7be3	-0.077873014
13	0xbd873ade	-0.06603025
14	0x3f06e862	0.5269834
15	0x3f6428e1	0.89124876
16	0x3f5e58b5	0.86854106
17	0x3f5791bf	0.84206766
18	0x3eb6e416	0.3572089
19	0x3f40ef81	0.75365454
20	0x3f6ec4f9	0.93269306
21	0x3f576ddb	0.84152
22	0x3f0d7868	0.5526185
23	0x3f2968fe	0.6617583
24	0x3f5c11ac	0.85964465
25	0xbd892a7c	-0.066975564
26	0x3d2e9c35	0.04262944
27	0x3f38916a	0.72096884
28	0x3cb4d56e	0.022074427
29	0x3f3995a9	0.7249399
30	0x3f461a04	0.77383447
31	0x3f4b933c	0.79521537
32	0xbd478b35	-0.048716743
33	0x3f31f7ad	0.6951855
34	0x3f85a835	1.0441958
35	0x3f43cc4d	0.76483613
36	0x3f514ec1	0.81760794
37	0x3f55663a	0.8335911
38	0x3f4b6cd3	0.7946293
39	0x3f7a171b	0.97691506
40	0x3f4fd22c	0.8118007
41	0xbcca2404	-0.024675377
42	0xbdeefb41	-0.11669017
43	0x3f4eb51b	0.80745095
44	0xbd6845ca	-0.05670718
45	0x3f621f27	0.88328785
46	0x3f623e68	0.88376474
47	0xbda11172	-0.078646556
48	0xbd03ab33	-0.03214569
49	0x3f65c607	0.8975529
50	0xbdd8edcf	-0.105922334
51	0x3f422350	0.7583513
52	0x3f51dcab	0.8197734
53	0xbd365027	-0.044510033
54	0xbd1cf612	-0.03832061
55	0x3f445753	0.76695746
56	0x3f488b9e	0.7833804
57	0xbb81688f	-0.003949232
58	0x3f5e84fa	0.86921656
59	0x3eba0c98	0.36337733
60	0x3f7c5679	0.98569447
61	0xbdb5d08e	-0.08877669
62	0x3f1e4318	0.61821127
63	0x3d9fe562	0.07807423

sequential_3/dense_6/MatMul f4 [64, 64]
0	0xbe750747	-0.23928557
1	0x3d89ac4c	0.06722316
2	0xbe6fc093	-0.23413305
3	0x3e0b00fa	0.13574591
4	0xbe53c094	-0.20678931
5	0xbe3146d5	-0.17312177
6	0x3debfd15	0.11522881
7	0x3e04cf40	0.12969685
8	0x3e06d48e	0.1316702
9	0x3e0077f7	0.12545763
10	0xbe19b507	-0.15010463
11	0xbe35968d	-0.17733212
12	0x3d76a8e3	0.060219657
13	0xbce775ca	-0.028254408
14	0xbe6f97ed	-0.23397799
15	0xbdb2c7d1	-0.08729518
16	0xbb9b3b56	-0.004737298
17	0x3dec285e	0.11531137
18	0xbe822f83	-0.25426874
19	0x3e053a48	0.13010514
20	0x3e10ece3	0.14152865
21	0xbdfa91ad	-0.12234817
22	0xbe59ce5f	-0.2127013
23	0xbe5424f0	-0.20717216
24	0xbe6ea370	-0.23304534
25	0xbe76605a	-0.24060193
26	0x3db47988	0.08812243
27	0x3da17a94	0.07884708
28	0xbe67921e	-0.22614333
29	0xbde40518	-0.11133784
30	0xbc75bc1f	-0.014998465
31	0xbdafbd02	-0.08580972
32	0xbdb78dc8	-0.089625895
33	0x3d6a6044	0.057220712
34	0xbcafe978	-0.021473631
35	0x3e340c91	0.17582919
36	0xbe15e69f	-0.14638756
37	0xbe15d42c	-0.14631718
38	0x3e52bcb9	0.20579804
39	0x3e19904b	0.1499645
40	0xbe270c7f	-0.1631336
41	0xbe265865	-0.16244657
42	0xbe562e85	-0.20916183
43	0xbd73716b	-0.059434336
44	0x3c53e5cd	0.012933207
45	0xbdfa280b	-0.12214669
46	0x3e074655	0.13210423
47	0xbe72b3c0	-0.23701382
48	0x3c8b4d75	0.017004708
49	0xbda558b4	-0.080735594
50	0xbbe0b459	-0.0068574366
51	0x3d3d8e3c	0.046278223
52	0xbd500287	-0.05078366
53	0x3d271f0f	0.040801104
54	0xbdc21d74	-0.09478274
55	0x3da369d8	0.079791725
56	0x3c7033fc	0.014660832
57	0xbe5ff23e	-0.21869752
58	0xbdb6312b	-0.08896097
59	0x3bf433d5	0.007452468
60	0xbdad72ff	-0.084691994
61	0xbe5eaf88	-0.21746647
62	0xbd45c50c	-0.04828362
63	0x3dc573db	0.09641238
64	0x3d924dbe	0.071437344
65	0x3ddf9992	0.10917963
66	0x3e741208	0.23835003
67	0x3f0913a3	0.5354559
68	0x3edf029d	0.4355668
69	0x3f351415	0.7073377
70	0x3f1bf0a2	0.6091405
71	0x3ea8d563	0.329753
72	0x3f2df6f6	0.6795496
73	0xbe450b43	-0.19242577
74	0xbd7cbbca	-0.061702527
75	0x3e0fa6d8	0.1402849
76	0x3ef7a7a1	0.48370078
77	0x3dd1de10	0.10247433
78	0x3ed8d285	0.42348114
79	0x3b8a32af	0.0042174677
80	0x3e87fcf3	0.26560172
81	0x3e7aef23	0.24505286
82	0x3da5c092	0.080933705
83	0x3ec7cf13	0.39025173
84	0xbe100826	-0.14065608
85	0x3f089c76	0.5336374
86	0x3f227ffc	0.6347654
87	0x3db68cdc	0.089135855
88	0x3ed41f6e	0.4143023
89	0x3e2c31e0	0.16815901
90	0x3e91f3bb	0.28506264
91	0x3dac8cd0	0.08425295
92	0x3f30e6aa	0.69101965
93	0xbe5260ce	-0.2054474
94	0x3e8bde1c	0.27317894
95	0x3df67a83	0.12035086
96	0x3f4d9cc6	0.8031734
97	0x3e0df430	0.13862681
98	0x3e2e1f3b	0.17004101
99	0x3f7aba34	0.97940373
100	0x3f11e4e6	0.56989896
101	0xbe0505a6	-0.12990436
102	0xbd620d67	-0.055188563
103	0x3e958217	0.29200813
104	0xbd38b1df	-0.045091506
105	0x3dd1d687	0.10245996
106	0x3ecedd66	0.4040329
107	0x3e8b3377	0.27187702
108	0x3ec1a810	0.37823534
109	0x3e843185	0.2581903
110	0x3d369d8f	0.044583853
111	0x3eda6faa	0.42663318
112	0x3f3260e1	0.69679075
113	0x3e93bdd0	0.28855753
114	0x3ebca62a	0.36845523
115	0x3f04e545	0.5191234
116	0x3f02aaf3	0.510421
117	0x3e97353b	0.295328
118	0x3e151623	0.14559226
119	0x3eac2aec	0.33626497
120	0xbda3f96d	-0.080065586
121	0x3c8271a1	0.015923323
122	0x3ec5c9c2	0.38630491
123	0x3e2682a5	0.16260774
124	0x3e5b8c7f	0.21440314
125	0x3efc7cf6	0.49314088
126	0x3e6a4e88	0.2288152
127	0xbde40925	-0.11134557
128	0xbe763401	-0.24043275
129	0xbdb42324	-0.08795765
130	0xbe0231aa	-0.12714258
131	0x3d7a2a41	0.061075453
132	0xbdb95558	-0.09049481
133	0xbc6f7e1b	-0.014617468
134	0x3e26c5a8	0.16286337
135	0x3cacf0da	0.02111094
136	0xbe1291bf	-0.1431341
137	0xbdcb8627	-0.09937697
138	0xbe8569a7	-0.2605717
139	0xbd02c758	-0.03192839
140	0x3d1083b4	0.035281852
141	0xbe85948a	-0.2608989
142	0x3e4e0e43	0.20122628
143	0xbb24bfb0	-0.0025138669
144	0x3db85b01	0.090017326
145	0xbc8ba9b7	-0.0170487
146	0xbe8bdf6b	-0.27318892
147	0x3d8afc6c	0.06786427
148	0xbdea2d22	-0.1143439
149	0x3d9f442a	0.07776673
150	0x3d826420	0.063667536
151	0xbda56f6b	-0.08077892
152	0xbc96ae76	-0.018393736
153	0x3e2bc0f8	0.1677283
154	0xbdbc5d14	-0.09197441
155	0x3db127a1	0.08650137
156	0xbe86d372	-0.26333195
157	0xbd973c78	-0.073845804
158	0xbe24aec6	-0.16082296
159	0xbd8c6277	-0.06854718
160	0xbe339fac	-0.17541379
161	0xbe38a076	-0.18029961
162	0x3e0be3f2	0.13661173
163	0xbd3ffdc6	-0.046872877
164	0x3de4ce61	0.11172176
165	0x3d3abd25	0.04559054
166	0xbe4a5ea0	-0.19762659
167	0x3e115164	0.14191204
168	0x3e101a2f	0.14072488
169	0xbe232140	-0.15930653
170	0xbe43cdb1	-0.19121434
171	0xbe5f4b6d	-0.21806116
172	0x3dcd6410	0.10028851
173	0xbd1bd122	-0.03804124
174	0xbe5e5f92	-0.21716145
175	0xbe3aca00	-0.1824112
176	0x3d002f1d	0.03129493
177	0x3daebac0	0.085317135
178	0x3d8697dd	0.06571934
179	0xba3b7a07	-0.00071516674
180	0xbe071cf6	-0.13194641
181	0x3da6f032	0.08151282
182	0x3e456e9e	0.19280478
183	0x3e2bfcf6	0.16795716
184	0xbde62979	-0.11238379
185	0xbd7d83d0	-0.061893284
186	0xbe6ebdec	-0.23314637
187	0x3dc40b23	0.09572437
188	0xbdf59e8c	-0.11993131
189	0xbbd5cf74	-0.0065249745
190	0xbd337e2d	-0.043821502
191	0xbe61ef6b	-0.22063987
192	0x3e427e7c	0.18993562
193	0x3d05e2b8	0.03268692
194	0x3c1ad936	0.009451201
195	0x3e49fefb	0.19726174
196	0x3ea9dc2e	0.33175796
197	0x3f22b966	0.63564146
198	0x3efbf18e	0.4920773
199	0x3e18663e	0.14882752
200	0x3f4b9232	0.7951995
201	0x3e633007	0.2218629
202	0xbd1fbeb1	-0.039000217
203	0x3e4275dd	0.18990274
204	0x3eb0bac3	0.34517488
205	0x3e3e3f5e	0.1857886
206	0x3eb5cca9	0.35507706
207	0xbdc07bfa	-0.09398647
208	0xbd90a476	-0.070626184
209	0x3d6e9bd9	0.058254097
210	0x3e24e30e	0.1610224
211	0x3d60c94f	0.054879483
212	0xbe7b2e5d	-0.24529405
213	0x3ed763dc	0.42068374
214	0x3ee1ee28	0.4412701
215	0xbd9cf4a0	-0.07663846
216	0x3e56f192	0.2099059
217	0xbc483c48	-0.012221403
218	0x3e994906	0.29938525
219	0xbd2ec62f	-0.04266947
220	0x3eacfb1a	0.33785325
221	0xbb9812e3	-0.0046409233
222	0x3e69909c	0.2280907
223	0x3dce27d1	0.10066188
224	0x3f063691	0.5242701
225	0xbcac47f5	-0.021030406
226	0xbc48107f	-0.012210964
227	0x3f41ba97	0.7567534
228	0x3df39511	0.118936665
229	0xbe53dbe7	-0.20689355
230	0x3d2021f1	0.03909487
231	0x3e29eedf	0.16595028
232	0x3dde39bf	0.10850858
233	0xbca113b2	-0.019662712
234	0x3ede8d61	0.4346724
235	0x3eb090a5	0.34485355
236	0x3da53550	0.08066809
237	0x3ea9fa24	0.33198655
238	0x3e498ed9	0.19683398
239	0x3e055b35	0.13023074
240	0x3ed3ae14	0.4134375
241	0x3e17e105	0.14831932
242	0x3e60ee8a	0.21965995
243	0xbc787133	-0.015163708
244	0x3edf2f7a	0.4359091
245	0x3e8d558a	0.27604324
246	0xbe5078ec	-0.20358628
247	0x3df32e3a	0.118740514
248	0xbd5d42dd	-0.054018844
249	0x3e518dec	0.20464295
250	0x3e7c0ea5	0.24614961
251	0x3e9544d2	0.29154068
252	0x3e1b1130	0.15143275
253	0x3f059cf4	0.52192616
254	0x3e0d95ba	0.13826647
255	0xbe181c0c	-0.14854449

sequential_3/dense_7/MatMul f4 [1, 64]
0	0x3dd963b1	0.10614718
1	0xbe436ebc	-0.1908521
2	0x3e760b97	0.24027859
3	0xbde32967	-0.11091881
4	0x3e48bd6e	0.19603512
5	0xbe218b6b	-0.1577584
6	0xbe195644	-0.14974314
7	0x3e8b1938	0.27167678
8	0x3e90f8ea	0.28314906
9	0xbd9dddb4	-0.07708302
10	0xbe486da3	-0.19573073
11	0x3e9fffa1	0.31249717
12	0x3ee98e6f	0.4561648
13	0x3e510416	0.20411715
14	0xbd8b2e27	-0.06795912
15	0xbe16590d	-0.14682408
16	0xbe8e159c	-0.27750862
17	0xbd903500	-0.07041359
18	0xbe8f5734	-0.27996218
19	0xbe8ac961	-0.27106765
20	0xbe2aa612	-0.16664913
21	0xbdb183bd	-0.08667705
22	0xbe8de309	-0.27712277
23	0xbe2b7b22	-0.1674619
24	0xbdfdfbc4	-0.12401536
25	0x3e418a35	0.18900378
26	0x3e838393	0.2568632
27	0xbe30b22d	-0.17255469
28	0x3ea7c36c	0.32766283
29	0xbe89f093	-0.26941356
30	0xbdf25df0	-0.118343234
31	0xbe05ba20	-0.13059282
32	0x3e368c20	0.17826891
33	0xbdd21659	-0.10258169
34	0xbdcd2a9c	-0.10017893
35	0xbdad24db	-0.08454295
36	0xbdc1a14e	-0.094545946
37	0xbe2b71e2	-0.16742662
38	0xbe5e1857	-0.21688972
39	0xbde1ba77	-0.110218935
40	0xbdf60184	-0.12012008
41	0x3e578662	0.21047357
42	0x3ed865e5	0.4226524
43	0xbd0130c3	-0.031540643
44	0x3e0b221f	0.13587235
45	0xbe4ed2af	-0.20197557
46	0xbe0f7a7a	-0.14011565
47	0x3e398350	0.18116498
48	0x3e5fcbaf	0.21855043
49	0xbe4003c8	-0.18751442
50	0x3e8271db	0.2547749
51	0xbe02e05e	-0.12780902
52	0xbe5cbd57	-0.21556602
53	0x3d8c8b1c	0.068624705
54	0x3e9bbd6a	0.3041795
55	0xbdf76c02	-0.12081148
56	0xbe2aeb19	-0.16691245
57	0x3eaf4ee8	0.34239888
58	0xbdf08848	-0.117447436
59	0xbe0392cb	-0.12848966
60	0xbdaab414	-0.083351284
61	0x3e75206f	0.23938154
62	0xbeb0730d	-0.34462777
63	0x3e4bccbc	0.19902319
