wake_word_two_lite.tflite (tflite, 71268 bytes, 9 tensors)

sequential_2/conv2d_6/BiasAdd/ReadVariableOp f4 [32]
0	0xbf14ed03	-0.5817415
1	0x3f53af93	0.8268978
2	0xbededf49	-0.43529728
3	0xbf182d44	-0.5944407
4	0xbe066df8	-0.13127887
5	0xbe81401c	-0.25244224
6	0xbf1764da	-0.5913826
7	0xbe7c8edb	-0.2466387
8	0xbf5d7096	-0.8649992
9	0xbf3fd55d	-0.7493494
10	0xbe1fa17c	-0.15588945
11	0xbe80f13b	-0.25184044
12	0xbea7ff96	-0.32812184
13	0xbf427f6b	-0.75975674
14	0xbd487aab	-0.04894511
15	0xbf183a5c	-0.5946405
16	0x3ed04520	0.40677738
17	0xbf24e6d4	-0.64414716
18	0xbdc0d0a9	-0.09414799
19	0x3e49c409	0.19703688
20	0x3d1647de	0.03668963
21	0xbe7a540c	-0.24446124
22	0x3e5214ea	0.2051579
23	0x3d80e89f	0.06294369
24	0x3f387f56	0.720693
25	0x3f21021c	0.62893844
26	0x3f5c68d1	0.8609744
27	0x3ee7091c	0.45124137
28	0x3e4514e5	0.19246252
29	0xbe6f98f3	-0.23398189
30	0xbf3a672f	-0.72813696
31	0x3f47e229	0.7807947

sequential_2/conv2d_7/BiasAdd/ReadVariableOp f4 [32]
0	0xbe29a3d7	-0.16566406
1	0xbd6c421a	-0.057680227
2	0xbe91f087	-0.2850382
3	0x3c0e86f7	0.00869917
4	0x3d9f171e	0.07768081
5	0xbdda352c	-0.10654673
6	0x3d73872e	0.05945509
7	0xbd5ef221	-0.05443013
8	0xbc12c70c	-0.008958589
9	0x3edef97d	0.4354972
10	0xbc6fa097	-0.01462569
11	0xbe3e200a	-0.1856691
12	0x3f7b02fd	0.98051435
13	0x3c37e98c	0.0112251155
14	0xbe7c4649	-0.24636187
15	0x3e96d155	0.29456583
16	0xbe5665ba	-0.20937243
17	0xbd592ad0	-0.053019345
18	0xbe192bfb	-0.14958183
19	0xbd0eb047	-0.03483608
20	0x3cbdb45c	0.023157291
21	0xbdbf8597	-0.09351652
22	0x3d800bb2	0.06252231
23	0xbd03b893	-0.032158446
24	0x3d4f0f42	0.05055166
25	0x3e2a6820	0.16641283
26	0xbde22a9e	-0.11043285
27	0xbd89de80	-0.06731892
28	0xbe51e026	-0.20495662
29	0xbdea7ee4	-0.11449984
30	0x3eb4c530	0.35306692
31	0xbce9dee9	-0.028548675

sequential_2/conv2d_8/BiasAdd/ReadVariableOp f4 [64]
0	0xbe3dbddc	-0.18529457
1	0xbdc511dd	-0.09622548
2	0x3c0f97e6	0.008764243
3	0xbd8de45d	-0.069283225
4	0xbd18cb03	-0.037302982
5	0xbe617f7e	-0.2202129
6	0x3e0fdaad	0.14048262
7	0xbe230640	-0.15920353
8	0xbe89cde6	-0.269149
9	0x3db05fe2	0.08612038
10	0x3c1997be	0.009374557
11	0xbcd29f9c	-0.025710873
12	0xbddfc7a9	-0.10926754
13	0xbdc10e0d	-0.09426508
14	0xbdeda57f	-0.116038315
15	0xbd281997	-0.04104003
16	0xbd335f07	-0.043791797
17	0xbd282af1	-0.041056577
18	0xbd42e979	-0.047585938
19	0x3df65d34	0.12029496
20	0xbd758f6d	-0.059951235
21	0xbd5a7c66	-0.05334129
22	0x3c547b08	0.012968786
23	0xbdc010d0	-0.09378207
24	0xbd6cceba	-0.057814337
25	0xbcdfbe6e	-0.027312484
26	0x3d173dc8	0.036924154
27	0xbd57201f	-0.052520867
28	0xbd9c2cec	-0.07625756
29	0x3dbca008	0.09210211
30	0x3a87de6c	0.001036597
31	0x3c5e2e40	0.013560832
32	0xbd12c132	-0.035828777
33	0xbd1276d5	-0.03575786
34	0xbceb79c4	-0.028744586
35	0xbe877ef0	-0.26464033
36	0xbd5dfa1d	-0.054193605
37	0xbe2c3287	-0.1681615
38	0xbce6ed42	-0.028189305
39	0xbd5e7d06	-0.05431845
40	0x3d8438a6	0.06456117
41	0x3d949ead	0.072568275
42	0xbe4f5841	-0.2024851
43	0xbe02bc48	-0.12767136
44	0xbdfae5f1	-0.12250889
45	0x3cd99c7b	0.026563874
46	0x3bdfcb72	0.0068296725
47	0x3d816f37	0.06320041
48	0xb99552d8	-0.00028481218
49	0xbcb11945	-0.021618495
50	0xbbee4976	-0.007271941
51	0xbc8af72e	-0.016963568
52	0xbcef4763	-0.029208845
53	0xbd1e4f7f	-0.038650032
54	0xbe43c70e	-0.19118902
55	0xbd592f55	-0.053023655
56	0xbdcf0238	-0.10107845
57	0xbd9bbaa7	-0.076039605
58	0x3dbc6371	0.091986544
59	0x3de52d45	0.11190275
60	0x3bc0318b	0.005865281
61	0xbd5f6ad0	-0.054545224
62	0x3e10fbd0	0.14158559
63	0xbb33ec84	-0.0027454207

sequential_2/conv2d_6/Conv2D f4 [32, 2, 2, 1]
0	0x3cf2f414	0.029657401
1	0xbc25bdd4	-0.010116059
2	0x3cad8b80	0.021184683
3	0x3c829fbe	0.015945312
4	0xbe06ce14	-0.1316455
5	0x3eb49ca0	0.35275745
6	0xbec6fad7	-0.3886325
7	0x3df99c9c	0.12188074
8	0x3c3cd24b	0.011524747
9	0xbbf8067c	-0.0075691324
10	0xbd5dd0b6	-0.05415412
11	0x3d95f3e2	0.073219076
12	0xb98cff2b	-0.00026892996
13	0x3b0c295b	0.0021386954
14	0x3ce6be57	0.028166933
15	0xbac40389	-0.0014954667
16	0x3d931ee1	0.07183624
17	0xbd87777e	-0.06614588
18	0xbcc78169	-0.0243537
19	0x3d4bc4a9	0.049748097
20	0x3dd36722	0.103224054
21	0xbdb64034	-0.088989645
22	0x3c33e2da	0.010979379
23	0xbc2a39a1	-0.010389716
24	0x3c602894	0.01368155
25	0xbbc3a660	-0.005970761
26	0x3cc19fcd	0.02363577
27	0xbc47bc76	-0.012190929
28	0xbcd83081	-0.026390316
29	0x3d81ae90	0.06332123
30	0xbd22753c	-0.039662585
31	0x3c2d24b8	0.010567836
32	0xbc1d9216	-0.009617349
33	0x3c7cc8db	0.015428747
34	0xbdd085f1	-0.10181797
35	0x3e00620f	0.12537406
36	0xbc377f98	-0.011199854
37	0x3cd82043	0.026382571
38	0x3ce26587	0.027636303
39	0x3c84b00d	0.016197229
40	0x3d6536a3	0.05596031
41	0xbd5b1a79	-0.053492043
42	0xbc3fded7	-0.011710844
43	0xbd5a095d	-0.053231586
44	0xbdd29350	-0.10282004
45	0x3da1607d	0.07879732
46	0xbeac4186	-0.3364374
47	0x3e43011d	0.19043393
48	0xbb275260	-0.0025531277
49	0x3c107d93	0.008819002
50	0x3bb53464	0.005529927
51	0xbc3355f3	-0.010945785
52	0xbc9f6b05	-0.01946021
53	0x3d21733d	0.03941654
54	0x3d10a5c6	0.035314344
55	0x3b88fc7f	0.0041804905
56	0x3a8271be	0.0009952111
57	0xb9c1d0c0	-0.0003696736
58	0x39aac066	0.00032568275
59	0x382c9f0c	4.115612e-05
60	0xba0065d7	-0.0004897988
61	0x3c822b08	0.01588966
62	0x3ce298a0	0.027660668
63	0xbb009b0f	-0.0019623672
64	0xbd97ac5a	-0.0740592
65	0x3de31b94	0.110892445
66	0xbdef6ada	-0.11690302
67	0x3e2b66e2	0.16738465
68	0xbb50eb9b	-0.0031878713
69	0x3c6f1587	0.014592535
70	0x39fc3608	0.00048105442
71	0x3c71b5c9	0.014752814
72	0xbd3c5114	-0.04597576
73	0xbd46eca7	-0.048565533
74	0x3c4ef185	0.012630825
75	0xbdc009c9	-0.09376866
76	0xbd829fdd	-0.06378148
77	0x3b3a8e1a	0.0028466047
78	0xbe1526fb	-0.14565651
79	0x3e4489bc	0.19193166
80	0x3c15692d	0.009119314
81	0x3b98277d	0.0046433792
82	0x3c04aec4	0.008098308
83	0x3c074b2b	0.0082576675
84	0xbd80cb60	-0.06288791
85	0x3bc55196	0.0060216887
86	0x3d276f66	0.040877722
87	0xbda358c0	-0.07975912
88	0x3cb21489	0.021738308
89	0x3dbb469e	0.091443285
90	0x3d463a3e	0.048395388
91	0xbd8d0fb3	-0.0688776
92	0x3d833f18	0.064085186
93	0xbd0634a4	-0.032765046
94	0x3cbecac1	0.02329004
95	0xbd073cac	-0.033016846
96	0x3e8e521d	0.27797022
97	0xbea096f9	-0.31365183
98	0x3eaf81d5	0.3427874
99	0xbddd715c	-0.10812637
100	0xbeeae7a6	-0.4587986
101	0x3e68f0be	0.22748086
102	0xbe33aba2	-0.17545941
103	0xbea75707	-0.32683584
104	0x3e1d6fcc	0.15374678
105	0x3e2875d3	0.16451196
106	0xbedd805a	-0.43261987
107	0x3efc78e1	0.49310973
108	0xbe3d7cae	-0.18504593
109	0x3e99d0ac	0.30042017
110	0x3e40513b	0.18780987
111	0xbda9a46a	-0.082833126
112	0x3d97c373	0.07410326
113	0xbcba3ade	-0.022733148
114	0xbd766955	-0.060159046
115	0xbdad8574	-0.0847272
116	0xbc848555	-0.016176859
117	0x3d0fb55e	0.035085075
118	0x3b60cf30	0.003430318
119	0x3cb6d107	0.022316469
120	0x3c5c097c	0.013429996
121	0x3ca23b6c	0.019803725
122	0xbcc1963c	-0.023631208
123	0x3daa56a9	0.0831731
124	0xbe88d9c7	-0.2672865
125	0x3e437722	0.19088414
126	0x3e78c9d8	0.24295747
127	0xbe0d9084	-0.1382466

sequential_2/conv2d_7/Conv2D f4 [32, 2, 2, 32]
0	0x3e49b744	0.19698817
1	0xbdcdfe4e	-0.100582704
2	0x3e0df869	0.13864292
3	0x3ebc5b9b	0.3678864
4	0x3e5e7652	0.21724823
5	0x3e2a2eb1	0.16619374
6	0x3e8bfe7c	0.27342594
7	0xbe40ae33	-0.18816452
8	0x3ec19368	0.37807775
9	0x3ee50351	0.44729093
10	0x3de23061	0.11044384
11	0xbe6cb853	-0.23117189
12	0x3e05f63c	0.13082212
13	0x3e5b5ce7	0.21422158
14	0x3dcf9e1b	0.10137578
15	0x3e5e72ef	0.21723531
16	0xbd173329	-0.036914025
17	0x3efd887c	0.49518192
18	0x3c981fe9	0.018569903
19	0xbe550c6f	-0.20805524
20	0xbd5df5db	-0.054189544
21	0x3df9ab7a	0.1219091
22	0xbb153adf	-0.0022770686
23	0xbdf10ac9	-0.11769635
24	0x3d4096a7	0.047018673
25	0x3c92cc06	0.017919552
26	0x3ca1b508	0.019739643
27	0x3e344aee	0.17606708
28	0x3ca0ceb8	0.019629821
29	0x3eebb7ea	0.46038753
30	0x3ec7ce12	0.39024407
31	0xbe14cf5d	-0.14532228
32	0x3eab9027	0.33508417
33	0xbe584821	-0.21121265
34	0x3eabb654	0.33537543
35	0x3e006b72	0.12540987
36	0x3d8f04d8	0.06983346
37	0x3e9f7b03	0.31148538
38	0x3ec7ab29	0.38997772
39	0x3e37649a	0.1790947
40	0x3f1bf732	0.60924065
41	0x3e8a3615	0.26994386
42	0x3e5cdf1c	0.21569484
43	0x3e4bd18d	0.19904156
44	0x3bdfa87c	0.006825505
45	0x3e469b05	0.19395073
46	0xbdb8eee2	-0.09029938
47	0x3ec9fc0b	0.39450106
48	0xbc92ef75	-0.017936448
49	0x3ef5eac0	0.48030663
50	0x3d19ef39	0.037581656
51	0xbb0a7cf1	-0.00211316
52	0x3ccd5577	0.025065167
53	0x3d7bd5a6	0.061483048
54	0xbe8a71fe	-0.27040094
55	0x3d397eeb	0.045287054
56	0xbd0ece35	-0.034864623
57	0xbb5f0e6b	-0.0034035693
58	0x3da4615c	0.08026382
59	0xbe8e23bd	-0.2776164
60	0xbe4f4db9	-0.20244493
61	0x3cb3334d	0.021875048
62	0x3eec92d4	0.4620577
63	0xbdbb7827	-0.091537766
64	0x3f0b198e	0.5433587
65	0x3dd13a06	0.10216145
66	0x3eb20769	0.34771279
67	0x3e846fd6	0.25866574
68	0x3e999542	0.29996687
69	0x3ec359a9	0.38154343
70	0x3e685bd6	0.22691283
71	0x3df5b9a4	0.11998299
72	0x3f298bc9	0.6622892
73	0x3dcd6640	0.10029268
74	0x3e10cb90	0.14140153
75	0x3e68e0eb	0.2274205
76	0x3dc069bd	0.09395168
77	0x3f0c052c	0.5469539
78	0xbce36797	-0.027759356
79	0x3ddfae40	0.109219074
80	0xbe8429e9	-0.25813225
81	0x3eab200b	0.33422884
82	0x3e82a55a	0.25516778
83	0x3e7d27cd	0.24722214
84	0x3e18aab5	0.1490887
85	0x3e2e65f7	0.17031084
86	0xbd79094f	-0.060799893
87	0x3ca8d115	0.02060751
88	0x3d16899c	0.03675233
89	0x3ce4f109	0.027946966
90	0x3e06b7c0	0.13156033
91	0xbcc0f6d2	-0.023555193
92	0x3da4b35c	0.080420226
93	0x3e39d46a	0.18147436
94	0x3f3dd3c4	0.74151254
95	0xbeb09c48	-0.34494233
96	0x3ee4e703	0.44707498
97	0xbe18c60a	-0.14919296
98	0x3e60ac94	0.21940833
99	0x3ec5860c	0.38578832
100	0x3e1293b0	0.14314151
101	0x3ebaed1e	0.3650903
102	0x3e4904a0	0.1963067
103	0x3cd318fc	0.02576875
104	0x3d82fc4c	0.06395778
105	0x3eaa1bb7	0.3322427
106	0xbdcf98ad	-0.101365425
107	0xbcc750b5	-0.024330476
108	0x3e53e7e6	0.20693931
109	0x3e9234b1	0.28555825
110	0x3dede0af	0.116151206
111	0x3e8ea236	0.27858132
112	0x3cfbfb1b	0.030759385
113	0x3e34f2fb	0.17670815
114	0xbda243c2	-0.0792308
115	0x3de4b42b	0.11167177
116	0x3c846542	0.016161565
117	0xbd381d07	-0.044949558
118	0x3ce16172	0.027512286
119	0xbd03d3d2	-0.03218443
120	0xbe7ce52a	-0.24696794
121	0xbb5a9bae	-0.0033356952
122	0x3b8598ef	0.004077069
123	0x3e88b947	0.26703855
124	0x3da809b1	0.082049735
125	0x3ea82448	0.3284018
126	0x3e96f3da	0.2948292
127	0xbdd5cf45	-0.10439924
128	0x3e14c256	0.14527258
129	0x3d3b21d0	0.045686543
130	0x3daf5910	0.08561909
131	0x3e342a64	0.17594296
132	0x3d3027f5	0.043006856
133	0xbcd5d310	-0.026101619
134	0x3db987f0	0.09059131
135	0x3e5f94aa	0.21834055
136	0xbea824b4	-0.32840502
137	0xbe0c3e2b	-0.1369559
138	0xbe8863a1	-0.2663851
139	0xbe1b1360	-0.1514411
140	0xbde1ff32	-0.11035003
141	0xbe4e695f	-0.20157383
142	0x3da8d096	0.082429096
143	0x3dd2aac0	0.10286474
144	0x3d60f286	0.05491879
145	0x3e0be0d6	0.13659987
146	0xbe22020c	-0.15821093
147	0x3e10d50e	0.14143774
148	0x3d1f8c6c	0.038952276
149	0xbe2eb6f9	-0.17061986
150	0xbd82049b	-0.06348535
151	0xbe2a78f1	-0.16647698
152	0xbd4d63de	-0.05014407
153	0x3dcb3158	0.09921521
154	0xbe12291b	-0.14273493
155	0x3e78397c	0.24240679
156	0xbdd4bdbe	-0.10387753
157	0x3d49bc7d	0.049252022
158	0xbed79ddb	-0.42112622
159	0xbe5c66f1	-0.21523644
160	0x3c28a6d6	0.010293683
161	0x3d9830fa	0.074312165
162	0x3e6df96d	0.2323968
163	0x3ebf2659	0.37333944
164	0x3d9fc114	0.078004986
165	0xbd4e406f	-0.050354417
166	0x3e19a84e	0.1500561
167	0xbe50a3a5	-0.20374925
168	0xbe8d8c76	-0.27646226
169	0x3cc54542	0.024080876
170	0xbee5afbe	-0.44860643
171	0x3cec54df	0.028849063
172	0x3e904ce8	0.28183675
173	0xbe7aac1c	-0.24479717
174	0x3e1b916a	0.1519219
175	0xbc8ca03d	-0.017166251
176	0xbe3b10c0	-0.18268108
177	0x3e46108d	0.19342251
178	0x3e2e0bd0	0.16996694
179	0x3e1b0ded	0.15142031
180	0x3e8b6346	0.27224177
181	0x3e4ae412	0.19813564
182	0x3e54e693	0.20791082
183	0x3d99ccc6	0.075097606
184	0x3e02a434	0.12757951
185	0xbe4809cd	-0.19534989
186	0x3e23740d	0.15962239
187	0x3d1931de	0.037401073
188	0xbe116e6c	-0.14202279
189	0x3e295875	0.1653765
190	0xbe803506	-0.25040454
191	0xbdb339ce	-0.0875126
192	0x3ead62dc	0.33864486
193	0x3deb6fa0	0.114959
194	0xbdaeb47a	-0.08530517
195	0xbd29de93	-0.04147203
196	0x3e99de29	0.30052307
197	0xbe4e28ed	-0.201328
198	0x3c89e189	0.016831176
199	0xbd9ff6fb	-0.0781078
200	0xbe02c37b	-0.12769882
201	0xbcf5c1f6	-0.029999714
202	0x3e9fce70	0.31212187
203	0x3ec33728	0.38128018
204	0x3e82fa5f	0.25581643
205	0x3e89cc34	0.26913607
206	0x3e3ac5ba	0.18239489
207	0x3e04454b	0.12917058
208	0xbf2e39f1	-0.6805716
209	0xbe58ee8e	-0.21184751
210	0xbe21b534	-0.1579178
211	0xbe249db8	-0.1607579
212	0xbe06092a	-0.13089433
213	0xbe4882fc	-0.19581217
214	0x3cc4760b	0.023982069
215	0xbd04aa43	-0.032388937
216	0x3e027840	0.12741184
217	0x3d3005f9	0.042974446
218	0x3d6249d6	0.055246197
219	0x3d382821	0.044960145
220	0x3e82b1c0	0.25526237
221	0x3ead107b	0.33801636
222	0xbe28b27e	-0.1647434
223	0xbe07fa2f	-0.13279031
224	0xbcdb457f	-0.026766537
225	0x3d98e3bb	0.07465311
226	0x3e7e9c6c	0.24864358
227	0x3c400a09	0.011721143
228	0xbe4c05c4	-0.19924074
229	0xbe868b63	-0.2627822
230	0xbeadcdb0	-0.3394599
231	0xbe968adc	-0.29402816
232	0xbe87abfd	-0.26498404
233	0xbe11a57b	-0.14223282
234	0xbe47e693	-0.19521551
235	0x3d4bf968	0.0497984
236	0xbc9b7568	-0.018976882
237	0xbdbc2901	-0.091875084
238	0xbe0ff834	-0.14059526
239	0xbe275a1f	-0.16342972
240	0xbd9fe752	-0.07807793
241	0xbe5a3ece	-0.2131302
242	0xbe74e03b	-0.23913662
243	0xbe37b511	-0.17940165
244	0x3d157601	0.03648949
245	0x3ba5447c	0.0050435644
246	0xbd6f53a8	-0.05842939
247	0xbd519f87	-0.051177528
248	0xbe7e1606	-0.24813089
249	0xbea78305	-0.32717147
250	0x3c415411	0.011799828
251	0xbcd57aae	-0.026059475
252	0xbe04248e	-0.1290457
253	0xbe3b0305	-0.1826287
254	0xbe92bb82	-0.28658682
255	0xbe7ceb1b	-0.2469906

sequential_2/conv2d_8/Conv2D f4 [64, 2, 2, 32]
0	0xbf9337a7	-1.1501359
1	0xbfeeb6dd	-1.8649555
2	0xbcf89d3f	-0.030348418
3	0xbee2cc2e	-0.44296402
4	0xbf091e53	-0.53561896
5	0x3f33b451	0.70197016
6	0xbf16ff89	-0.58983666
7	0x3f1153f9	0.5676876
8	0xbeae641b	-0.3406075
9	0x3cbcd184	0.023049124
10	0x3ebe26ba	0.3713892
11	0xbf8157a7	-1.0104874
12	0x3ccf8ebe	0.02533662
13	0xbf69f5f8	-0.91390944
14	0xbfaba387	-1.340928
15	0x3ea8f821	0.33001807
16	0xbfb4f200	-1.4136353
17	0xbea706c9	-0.32622364
18	0x3e774dd0	0.24150777
19	0xbef85c7a	-0.48508054
20	0xbf8398a8	-1.0280962
21	0xbf5ca684	-0.8619158
22	0x3e82047b	0.25394043
23	0xbf4cf6e2	-0.80064213
24	0xbee64885	-0.44977203
25	0xbe4567dd	-0.19277902
26	0x3e8da7b7	0.2766702
27	0xbed713fe	-0.4200744
28	0xbfde0c02	-1.7347414
29	0xbf2929e8	-0.6607957
30	0xbf5edd6f	-0.8705663
31	0x3e657d23	0.22411017
32	0xbf9427fb	-1.1574701
33	0xbfcf413d	-1.6191784
34	0xbefa3fdc	-0.48876846
35	0xbf82b138	-1.0210333
36	0xbf021275	-0.50809413
37	0x3ecf8710	0.40532732
38	0x3f355395	0.7083066
39	0x3f8f9931	1.1218625
40	0xbf8595e2	-1.0436366
41	0xbc1393ca	-0.009007404
42	0x3ec52846	0.3850729
43	0xbf364468	-0.7119813
44	0xbd8d0b3b	-0.06886908
45	0xbe3a9a32	-0.18222883
46	0xbf94c0e9	-1.1621372
47	0x3ecf7236	0.40516824
48	0xbf06b566	-0.5262054
49	0xbe8b19fb	-0.2716826
50	0x3f853f05	1.0409857
51	0xbece2f9d	-0.402707
52	0x3ef8eae9	0.48616722
53	0xbebb18a1	-0.36542228
54	0x3ec3b4f2	0.38223988
55	0xbf4c075c	-0.7969873
56	0xbf3efc10	-0.74603367
57	0xbd17170e	-0.03688722
58	0xbf04a8ac	-0.5181987
59	0xbf1ee4e6	-0.6206802
60	0xbf6abc57	-0.91693634
61	0xbf79e418	-0.9761367
62	0x3f147101	0.5798493
63	0x3e5a92c9	0.21345057
64	0xbf062119	-0.52394253
65	0xbe4a3a65	-0.19748838
66	0xbe9172ad	-0.28407803
67	0x3d80ce0f	0.062893026
68	0xbeeaef42	-0.45885664
69	0xbfab4132	-1.3379271
70	0x3d84d3f7	0.064857416
71	0xbf139e7e	-0.57663715
72	0xbeb482dc	-0.35256088
73	0x3e0c15fb	0.1368026
74	0x3e39f598	0.18160093
75	0xbedf3b67	-0.43600008
76	0xbcf20b34	-0.029546358
77	0xbf203aa2	-0.62589467
78	0xbc8ae360	-0.016954124
79	0xbfc4d89d	-1.5378605
80	0xbebef4b4	-0.3729607
81	0x3dc349b1	0.0953554
82	0xbf43dd20	-0.76509285
83	0xbf75a215	-0.9595044
84	0xbf2b8249	-0.66995674
85	0xbf11d33e	-0.56962955
86	0x3d1ec5df	0.038762923
87	0xbf4eaa31	-0.8072844
88	0x3f0d5e1f	0.5522174
89	0x3ef3c883	0.47613916
90	0xbe9e4fa7	-0.30920145
91	0x3e15b341	0.14619161
92	0xbea1b56a	-0.3158372
93	0xbea354c2	-0.31900603
94	0x3d922f9c	0.07137987
95	0x3f285726	0.6575798
96	0xbf35c7ec	-0.7100818
97	0xbf2d13fe	-0.6760863
98	0xbea5e8a0	-0.3240404
99	0xbeffc899	-0.4995773
100	0xbf0e732c	-0.5564449
101	0xbf61fb22	-0.88273823
102	0x3f47311a	0.778093
103	0x3d147409	0.036243472
104	0xbeaf5200	-0.3424225
105	0x3e62a61e	0.22133681
106	0xbeac1946	-0.33613032
107	0xbec989e6	-0.3936302
108	0xbcff782a	-0.031185228
109	0xbf56ded8	-0.8393378
110	0xbe90493c	-0.28180873
111	0xbfad11b7	-1.3521031
112	0xbf0b54d3	-0.54426306
113	0xbe188d03	-0.14897542
114	0xbf1bda49	-0.6087995
115	0xbf48b9f5	-0.7840875
116	0xbddba353	-0.10724511
117	0xbf228f68	-0.6350007
118	0xbf29c08c	-0.6630943
119	0xbf62dffb	-0.8862302
120	0x3f4fbb04	0.8114474
121	0x3db49f6a	0.08819468
122	0x3d647fbc	0.05578588
123	0xbe587982	-0.21140102
124	0xbf3d09c2	-0.73843014
125	0x3caba8d0	0.02095452
126	0x3f0a9076	0.5412668
127	0x3f21fc95	0.63276035
128	0x3dd106e1	0.1020639
129	0x3eca0e19	0.3946388
130	0x3e929949	0.28632572
131	0x3e410982	0.18851283
132	0x3d99c85d	0.075089194
133	0x3eb49359	0.35268667
134	0x3e841d12	0.2580343
135	0x3e80c05c	0.2514676
136	0x3ecc8074	0.39941752
137	0xbe14b5b7	-0.14522444
138	0x3efa204d	0.4885277
139	0x3f0a55d6	0.54037225
140	0xbcc0e4a9	-0.023546534
141	0x3e869340	0.26284218
142	0x3e6f5068	0.23370516
143	0x3eba222b	0.36354193
144	0x3e93282b	0.28741583
145	0x3e900977	0.2813222
146	0x3ea80b6d	0.32821217
147	0x3f297732	0.661975
148	0x3dcb9573	0.099406146
149	0x3eba7f6f	0.3642535
150	0x3e73e04a	0.23816028
151	0x3f03b420	0.51446724
152	0x3e7de72b	0.24795215
153	0x3e5d0c51	0.2158673
154	0xbc5d66f3	-0.013513315
155	0x3e185b77	0.14878641
156	0x3f01121d	0.50418264
157	0x3ddaebe1	0.106895216
158	0x3d980029	0.074219055
159	0x3e53470a	0.20632568
160	0x3eb393f5	0.3507382
161	0x3e937c1a	0.2880562
162	0x3ec8ba66	0.3920471
163	0x3e6b06f9	0.22951879
164	0xbd74870b	-0.0596991
165	0x3d90a647	0.07062965
166	0x3e131072	0.14361742
167	0x3e820b53	0.25399265
168	0x3e1ac902	0.15115741
169	0x3db8ebd0	0.09029353
170	0x3ecc4db1	0.39903024
171	0x3f66e63a	0.9019505
172	0xbd69660f	-0.056982096
173	0x3f20a03f	0.62744516
174	0x3f534f51	0.825429
175	0x3f353a8c	0.7079246
176	0x3f0ad2e6	0.54228055
177	0x3e2014b6	0.156329
178	0x3e962a2b	0.29329047
179	0x3f62a9d8	0.8854041
180	0x3dc0a39e	0.094062075
181	0x3f2b570d	0.66929704
182	0x3e3ccf55	0.18438466
183	0x3f5f17b3	0.8714554
184	0x3e8907ad	0.2676367
185	0x3df03411	0.11728681
186	0x3e8b6b83	0.27230462
187	0x3edf1042	0.4356709
188	0x3f0ce062	0.5502988
189	0x3eaad5d2	0.33366257
190	0x3e3e5834	0.18588334
191	0x3e19a138	0.15002906
192	0x3e9fa27c	0.31178653
193	0x3ed7a561	0.42118362
194	0x3e1cfecb	0.15331571
195	0x3f39ffcd	0.72655946
196	0x3ed8695f	0.42267892
197	0x3e37f4cb	0.17964475
198	0x3e867f8c	0.26269186
199	0x3e2f4cd9	0.17119159
200	0x3e743534	0.2384842
201	0xbdcbcb2a	-0.0995086
202	0x3e102434	0.1407631
203	0x3e96880f	0.2940068
204	0xbe551558	-0.20808923
205	0x3ee65262	0.44984728
206	0x3ea82da2	0.32847315
207	0x3d710f71	0.058852617
208	0x3e663838	0.22482383
209	0x3efce54f	0.493937
210	0x3dfdd748	0.12394577
211	0x3ec7ce9e	0.39024824
212	0x3ec3fdb9	0.38279513
213	0x3e14c872	0.14529589
214	0x3d3ba3b3	0.045810413
215	0x3f43f8a9	0.765513
216	0x3f1a49d1	0.60268885
217	0x3ed1024f	0.40822074
218	0x3daf0cb5	0.085473455
219	0x3f0bd9c8	0.5462918
220	0x3ee636d9	0.4496372
221	0x3e81b403	0.2533265
222	0x3ea9f95c	0.3319806
223	0x3e004278	0.12525356
224	0x3eb6e3eb	0.35720763
225	0x3edfd280	0.43715286
226	0x3ec84bd5	0.39120355
227	0x3f5fe94f	0.87465376
228	0x3eb47a33	0.3524948
229	0x3e4b7202	0.1986771
230	0x3f483c0a	0.7821661
231	0x3e198df7	0.14995562
232	0x3dcb3a55	0.09923235
233	0xbdd0b225	-0.101902284
234	0x3edf3362	0.4359389
235	0x3f0ec7c8	0.5577359
236	0xbce1f5c7	-0.027583016
237	0x3f0b0041	0.5429726
238	0x3ebc8fe5	0.36828533
239	0xbd984e84	-0.07436851
240	0x3ec7c2d8	0.3901584
241	0x3f35950b	0.70930547
242	0x3e698003	0.22802739
243	0x3e93f7d8	0.28900027
244	0x3eecb5dd	0.462325
245	0x3f11e910	0.5699625
246	0xbde9838f	-0.11402046
247	0x3f556819	0.83361965
248	0x3eff6b9b	0.49886784
249	0x3f3c9dab	0.7367808
250	0x3cca17a9	0.024669485
251	0x3ed00962	0.4063216
252	0x3f2685fd	0.650482
253	0x3f17128f	0.59012693
254	0x3f1d49b2	0.61440575
255	0x3e110a42	0.1416407

sequential_2/dense_4/BiasAdd/ReadVariableOp f4 [64]
0	0xbd984836	-0.07435648
1	0x3e794430	0.24342418
2	0xbe4aa392	-0.1978896
3	0x3f4c4b56	0.79802454
4	0x3f305534	0.6888001
5	0x3f360265	0.71097404
6	0xbd470fc3	-0.048599016
7	0x3f1c9db1	0.6117812
8	0x3f699711	0.91246134
9	0xbc7a1c31	-0.01526551
10	0x3f58d6bd	0.84702665
11	0xbd913bc0	-0.070914745
12	0x3f3b0282	0.730507
13	0xbd32485e	-0.043526046
14	0xbd518481	-0.051151756
15	0x3f3f8333	0.7480957
16	0x3f65f561	0.89827543
17	0xbd84946f	-0.06473624
18	0xbd45e82d	-0.048317123
19	0xbc5b4984	-0.013384227
20	0xbd5c38f2	-0.053765245
21	0x3e49463a	0.19655696
22	0xbdd1a2e6	-0.102361485
23	0xbd8dab04	-0.06917384
24	0xbcd469b0	-0.025929302
25	0x3f35ce80	0.7101822
26	0x3e983744	0.29729664
27	0xbd37c19f	-0.044862386
28	0xbcebd466	-0.028787803
29	0x3f2bfb4f	0.6718034
30	0x3f690288	0.9101949
31	0x3f31c7cd	0.69445497
32	0x3f55ffd0	0.83593464
33	0xbdcbe9f8	-0.099567354
34	0xbdea07da	-0.11427279
35	0xbd967121	-0.073457964
36	0x3f595c27	0.8490624
37	0xbd37fae0	-0.044916987
38	0xbd4819d0	-0.04885274
39	0x3f35f457	0.7107596
40	0xbd162632	-0.03665752
41	0xbd001629	-0.031271134
42	0x3f55efcc	0.83569026
43	0x3f0fec39	0.5621982
44	0x3f59a33e	0.8501471
45	0xbd12176d	-0.03566687
46	0x3f521d00	0.820755
47	0x3f5cdc57	0.8627371
48	0x3f556c35	0.83368236
49	0x3f431d1f	0.7621631
50	0xbdd9e093	-0.10638537
51	0x3f6b1d47	0.9184155
52	0xbc8cdc5a	-0.017194916
53	0xbdff94b0	-0.12479532
54	0xbd783d3c	-0.060605273
55	0xbd94a7c6	-0.07258563
56	0x3f576abc	0.8414724
57	0xbd715934	-0.05892296
58	0xbc8aa9fd	-0.01692676
59	0x3f3114d9	0.69172436
60	0x3e0ad606	0.13558206
61	0x3f530833	0.82434386
62	0xbdcf704c	-0.10128841
63	0xbe2bbe5f	-0.1677184

sequential_2/dense_4/MatMul f4 [64, 64]
0	0xbbda77fe	-0.006667136
1	0xbe776fad	-0.24163695
2	0xbd722db0	-0.059125602
3	0x3d4f3068	0.050583273
4	0xbdd7a569	-0.10529596
5	0xbe86e5be	-0.26347154
6	0x3d6bc522	0.057561047
7	0xbe494312	-0.19654492
8	0x3e250de9	0.16118588
9	0xbe71a8bd	-0.23599525
10	0xbdbeb77e	-0.09312342
11	0x3bc0fec0	0.0058897436
12	0xbe58c672	-0.21169451
13	0xbe218347	-0.15772735
14	0xbd2e444a	-0.042545594
15	0xbd818386	-0.06323914
16	0xbe33443b	-0.17506497
17	0xbd3176fc	-0.043326363
18	0xbe417ab7	-0.18894468
19	0xbdb484d9	-0.08814401
20	0xbdabce98	-0.08389014
21	0xbde4454d	-0.111460306
22	0xbe0c3906	-0.13693628
23	0xbe383132	-0.17987517
24	0xbe29fcd6	-0.16600356
25	0x3da1a6dc	0.07893154
26	0xbe6bdbca	-0.23033062
27	0xbcca9c07	-0.024732603
28	0xbdc7252b	-0.09723886
29	0xbda38e4b	-0.079861246
30	0xbe1d9cea	-0.15391889
31	0xbe4dccf4	-0.20097715
32	0xbe3997d7	-0.18124329
33	0x3dcdc2e3	0.10046937
34	0xbe1f45e0	-0.15553999
35	0xbe473b1b	-0.1945614
36	0x3d4e976b	0.050437372
37	0x3ded2ec7	0.11581188
38	0xbe3e512d	-0.18585654
39	0x3d9623f0	0.07331073
40	0xbda311b8	-0.07962364
41	0x3e025cf3	0.1273077
42	0xbe88bda8	-0.26707196
43	0x3d23fb07	0.04003432
44	0x3bd5f856	0.006529848
45	0xbdf7a3dd	-0.12091801
46	0xbcabad5b	-0.020956686
47	0x3daeaa8c	0.08528623
48	0xbe842078	-0.25806022
49	0xbc74afa0	-0.01493445
50	0xbda7d761	-0.08195377
51	0xbe7f6960	-0.24942541
52	0xbd375f59	-0.044768665
53	0xbde6c856	-0.1126868
54	0x3bf6e2e0	0.00753437
55	0xbe0dc89b	-0.13846056
56	0x3ba080c6	0.0048981635
57	0x3e106ab3	0.14103203
58	0x3da88f3a	0.08230443
59	0x3b15df7d	0.0022868805
60	0xbba0294f	-0.004887737
61	0x3db74b5d	0.08949921
62	0xbd0f690d	-0.035012294
63	0xbdebf172	-0.115206614
64	0x3c136d02	0.008998157
65	0x3ef1e1c1	0.4724255
66	0x3edce36e	0.43142265
67	0x3e5b8bb6	0.21440014
68	0xbddf2025	-0.10894803
69	0xbe09b891	-0.13449313
70	0xbdcf8fde	-0.10134862
71	0xbe055f45	-0.13024624
72	0x3e0cabf7	0.13737474
73	0x3eea0912	0.45710045
74	0x3f1c2108	0.609879
75	0x3d6f7be7	0.05846777
76	0x3d8cf262	0.06882168
77	0x3dcb1de2	0.09917809
78	0x3ed2878c	0.4111904
79	0x3cd5873d	0.026065463
80	0x3ed14fbc	0.40881145
81	0x3f16ad09	0.5885778
82	0x3ebc31cd	0.36756745
83	0x3eab2759	0.33428457
84	0x3eae107c	0.33996952
85	0xbc9d7bee	-0.019224133
86	0x3eb4fc35	0.3534867
87	0x3dcea4eb	0.10090049
88	0x3f18e89e	0.59729946
89	0x3f0617d2	0.52380097
90	0x3f0225a5	0.5083869
91	0x3eed91c7	0.46400282
92	0x3d9b1f2d	0.07574306
93	0xbc2be7d7	-0.010492287
94	0x3ebf081b	0.3731087
95	0x3ed07157	0.4071147
96	0x3ec9a79d	0.3938569
97	0x3ea4b05d	0.32165805
98	0xbd57feab	-0.052733105
99	0xbcb071e4	-0.021538682
100	0x3e52ba5f	0.20578907
101	0xbe011129	-0.12604202
102	0x3e6f0913	0.23343305
103	0x3e9c689a	0.30548555
104	0x3cc7b5eb	0.024378737
105	0x3f0bee59	0.54660565
106	0x3d357354	0.04429944
107	0x3e925d9a	0.28587037
108	0xbe8cb6be	-0.2748317
109	0x3ecb1d95	0.39671007
110	0x3ecbd32f	0.39809558
111	0x3ee2c4ec	0.44290864
112	0x3f174f32	0.5910522
113	0x3d62cbcb	0.055370133
114	0x3ede38fc	0.4340285
115	0x3e7da038	0.2476815
116	0x3e8d5c13	0.2760931
117	0x3ee2a694	0.44267714
118	0xbde2a9bc	-0.110675305
119	0x3f134ac9	0.5753599
120	0x3ee24329	0.44191864
121	0x3e83eb41	0.25765422
122	0x3dead141	0.11465693
123	0x3e6926da	0.22768727
124	0x3eefab63	0.46810445
125	0x3ee456f3	0.44597587
126	0x3f120f64	0.57054734
127	0x3e87f326	0.26552695
128	0x3ec05761	0.37566665
129	0x3dd17475	0.102272905
130	0xbe54ce84	-0.20781904
131	0xbe3e62de	-0.18592402
132	0xbe679fef	-0.22619604
133	0xbe06146f	-0.13093732
134	0xbe08a1d2	-0.1334298
135	0x3e929da9	0.2863591
136	0x3e5f8525	0.21828134
137	0xbe0b5088	-0.13604939
138	0xbdca0e92	-0.0986606
139	0x3e33a0d7	0.17541824
140	0xbcc0db93	-0.023542201
141	0x3df13652	0.11777939
142	0x3cfc8662	0.030825797
143	0x3d816606	0.063182876
144	0xbeb5f17c	-0.355358
145	0xbe31f789	-0.17379583
146	0xbf0fd341	-0.5618172
147	0xbea9a5e6	-0.33134383
148	0x3dbde3d2	0.09271969
149	0xbe5dc203	-0.21656041
150	0xbc10e538	-0.0088437125
151	0x3e076216	0.1322101
152	0xbe95d1ae	-0.29261535
153	0x3c40956c	0.011754375
154	0x3d946f4e	0.07247792
155	0xbe095e4a	-0.13414875
156	0x3da81b7f	0.082083695
157	0xbf047ece	-0.5175599
158	0xbe7efecd	-0.24901886
159	0x3e09b71b	0.13448755
160	0xbd71de63	-0.059049975
161	0xbd249ea5	-0.040190358
162	0x3e25bd2b	0.16185443
163	0x3ceafb01	0.028684141
164	0xbe9a4b28	-0.30135465
165	0x3eb31015	0.34973207
166	0xbd817090	-0.06320298
167	0x3e1b51c5	0.15167911
168	0xbdd73a3b	-0.105091535
169	0xbe79457d	-0.24342914
170	0x3ecac878	0.3960607
171	0x3ea82958	0.32844043
172	0x3db96b57	0.090536766
173	0x3d47a8df	0.048745032
174	0xbefbde1d	-0.49192896
175	0x3dc60b7f	0.096701615
176	0x3d594555	0.053044636
177	0x3e560e34	0.20903856
178	0xbe6a9ed7	-0.22912155
179	0x3e111ed0	0.1417191
180	0x3cf428e3	0.029804653
181	0xbe9aa8ac	-0.3020681
182	0x3e76be3a	0.24096003
183	0x3dcbb844	0.09947255
184	0xbe73d1e1	-0.23810531
185	0xbe6b5ccd	-0.2298462
186	0xbd87831d	-0.06616805
187	0x3e5a56aa	0.21322122
188	0xbcc4faa5	-0.024045298
189	0x3e513b10	0.20432687
190	0x3e24b8e1	0.1608615
191	0x3d7f16a8	0.062277466
192	0xbe950f71	-0.29113343
193	0x3ef2c04a	0.4741233
194	0x3e7e07a4	0.24807602
195	0x3ea66523	0.32499036
196	0xbe0a0c8f	-0.13481353
197	0xbe3ad715	-0.1824611
198	0x3da44bbf	0.0802226
199	0xbeb67384	-0.35635006
200	0xbecc8e28	-0.39952207
201	0x3f46c1f3	0.77639693
202	0x3f02265a	0.5083977
203	0xbe021f52	-0.1270726
204	0x3e30c2bc	0.17261785
205	0x3e6e9c6b	0.23301856
206	0x3ebd8520	0.3701563
207	0x3f0b00f7	0.5429835
208	0x3eb0c0ed	0.3452219
209	0x3ee9d8b0	0.45673132
210	0x3f1bd838	0.608768
211	0x3eadf0be	0.33972734
212	0x3db3520e	0.08755885
213	0x3ebe9a7e	0.37227243
214	0x3e9d98d6	0.30780667
215	0x3e32e351	0.17469527
216	0x3f35258c	0.70760417
217	0x3eb2056b	0.3476976
218	0x3f052dff	0.5202331
219	0x3ede1ae2	0.43379885
220	0x3e2c168b	0.16805474
221	0x3eba38d6	0.36371487
222	0x3f0bc09a	0.5459076
223	0x3ea0047c	0.3125342
224	0x3efbce24	0.4918071
225	0x3ebe3afe	0.37154382
226	0x3d875399	0.06607742
227	0xbdf2be1c	-0.11852667
228	0x3f048e9f	0.5178012
229	0xbe814cba	-0.2525385
230	0x3ecdca9f	0.4019365
231	0x3ea21f3d	0.31664458
232	0x3eb810c9	0.35950306
233	0x3f02d4a3	0.5110571
234	0xbe6afb22	-0.22947362
235	0x3da24a68	0.07924348
236	0x3dbf0b41	0.093283184
237	0x3e91a584	0.2844659
238	0x3ea4f729	0.32219818
239	0x3ec7c02d	0.39013806
240	0x3f424eea	0.75901663
241	0xbd738a00	-0.05945778
242	0x3e57600f	0.21032737
243	0x3eae81f9	0.34083536
244	0x3f1fba51	0.6239367
245	0x3eb10035	0.3457047
246	0xbd6307f0	-0.05542749
247	0x3f1a848c	0.603585
248	0x3e903e18	0.28172374
249	0x3e6a7848	0.22897446
250	0x3f188e01	0.5959168
251	0x3f399dc5	0.7250636
252	0x3ea3ecb6	0.32016534
253	0x3ddfd4eb	0.10929283
254	0x3f2ba96e	0.67055404
255	0x3e76c957	0.24100243

sequential_2/dense_5/MatMul f4 [1, 64]
0	0x3e5e69ed	0.21720095
1	0xbe374afd	-0.178997
2	0x3f07f9d9	0.5311561
3	0xbe0b2d84	-0.13591582
4	0xbe72dd62	-0.23717263
5	0xbe6afd65	-0.22948225
6	0x3e77e154	0.2420705
7	0xbe9d3d5c	-0.30710876
8	0xbdb4ba85	-0.08824638
9	0x3e74b1bd	0.23895927
10	0xbe09b049	-0.13446154
11	0x3ee16f58	0.4403026
12	0xbe5d00b9	-0.21582307
13	0x3e060c1a	0.13090554
14	0x3d20f7d7	0.03929886
15	0xbe4bb563	-0.19893412
16	0xbe736610	-0.23769403
17	0x3be6c31e	0.0070423028
18	0x3f113183	0.56716174
19	0x3e7f5389	0.2493421
20	0x3e77c734	0.24197084
21	0xbea85c9b	-0.32883152
22	0x3e563477	0.20918451
23	0x3ca5b4fa	0.020227898
24	0x3ef3787e	0.47552866
25	0xbe71f977	-0.2363032
26	0xbed31f59	-0.41234854
27	0x3dc8f7ed	0.09812913
28	0x3eb54884	0.35406888
29	0xbe444164	-0.1916557
30	0xbe17d59b	-0.14827578
31	0xbe84577e	-0.25848
32	0xbe2212ad	-0.15827437
33	0x3e0bcc0b	0.13652055
34	0x3d155735	0.03646012
35	0x3e0bbdab	0.13646571
36	0xbe3fb2c3	-0.18720536
37	0x3c20de35	0.009818603
38	0x3eb75fa6	0.3581516
39	0xbe9fde5f	-0.31224343
40	0x3d8f07b7	0.06983893
41	0x3dd3a282	0.1033373
42	0xbd110d10	-0.035412848
43	0xbeba3d79	-0.36375025
44	0xbe801c5a	-0.2502163
45	0xbb946648	-0.0045287944
46	0xbe256388	-0.1615125
47	0xbdc223a7	-0.094794564
48	0xbe39e777	-0.18154703
49	0xbe731b01	-0.2374077
50	0x3c7c0a21	0.015383274
51	0xbe1d811a	-0.1538128
52	0x3e1b0cd9	0.1514162
53	0x3cc60563	0.02417249
54	0x3f1f7573	0.6228859
55	0x3ed8aad0	0.4231782
56	0xbe01f519	-0.12691154
57	0x3f204307	0.62602276
58	0x3ee77b6c	0.4521135
59	0xbe98d58d	-0.29850426
60	0xbe88f4e9	-0.26749352
61	0xbdf58f61	-0.11990238
62	0x3e3f89da	0.1870493
63	0x3f35632a	0.7085444
