wake_word_one_lite.tflite (tflite, 71268 bytes, 9 tensors)

sequential_1/conv2d_3/BiasAdd/ReadVariableOp f4 [32]
00000000: fe55 123f 3c12 0c3f f7a4 5cbf 9788 3b3f
00000010: 8ee7 54bf b772 1fbe 5590 993f 703b 36bf
00000020: 527e 52bf 6951 21bf cc6f 81bf d13c 163f
00000030: 638b ecbe 2dbc 2fbe 6212 f8be facb 78bf
00000040: 00b9 0ebf 2f33 2bbe 06c3 74bc 7197 913e
00000050: 015b 00bf 006f 15bf a471 f6be 5b3d c2be
00000060: 265b 28bf ccd1 08be 9fd6 38bf 7e2a c9be
00000070: 3759 893f ee62 693e 3b12 11bf e812 56bf
0.57162464 0.54715323 -0.86189216 0.73255295 -0.83165824 -0.15571104 1.1997172 -0.71184444
-0.82224 -0.6301485 -1.0112243 0.5868655 -0.46200094 -0.17161627 -0.48451525 -0.97186244
-0.5575104 -0.16718744 -0.014939075 0.28435853 -0.5013886 -0.583725 -0.48133576 -0.37937436
-0.6576408 -0.13361281 -0.72202486 -0.3929023 1.0730351 0.22791645 -0.5666844 -0.836226

sequential_1/conv2d_4/BiasAdd/ReadVariableOp f4 [32]
00000000: 60fa 2ebe e159 013d 3c2e 8a3f e26a 26be
00000010: 678d cabb 5853 05be 34c6 913e 9eb3 5bbe
00000020: 7888 0bbe 270e d7bd 377e 1d3e 4850 103e
00000030: ec9f 27bc de9a e4be 85e9 e5bd 30fd 11be
00000040: 392d 843d b24d 443f 5748 b3bd 3783 9f3e
00000050: e27c f53a 0538 473d 1a32 213d 7aee e3bd
00000060: 8866 073d 8121 f23d 1299 97be c6f5 0b3e
00000070: 58aa cf3c 81fd 57be aee6 82be 7acd 5b3f
-0.17087698 0.031579856 1.079536 -0.1625171 -0.0061814073 -0.13020074 0.2847153 -0.21455237
-0.13626277 -0.10500746 0.15380178 0.14093125 -0.010230999 -0.44649404 -0.11226181 -0.1425674
0.06453938 0.76681054 -0.08754032 0.31154796 0.0018729235 0.04863741 0.03935442 -0.1112947
0.033056766 0.118227966 -0.2960897 0.13667974 0.02534978 -0.21092798 -0.2556662 0.8586041

sequential_1/conv2d_5/BiasAdd/ReadVariableOp f4 [64]
00000000: 6d20 19bd 9214 51bd 07af 19bd 94cc ccbd
00000010: 9a59 97bd 6e6a 6ebd 0421 5bbd d432 82bc
00000020: 82bc 24be bac5 27bc dcd5 90bc bc7d 42bd
00000030: a377 c3bc 35e6 fbbb ed40 41bd dc9e dcbb
00000040: e7e9 823d 80d9 a63d 2b49 17be 57bc 8abd
00000050: e5a4 1fbd da87 32bc d51a 94bd 068d 083c
00000060: f7c2 843d 2e80 2e3c fb9f 0abc 4b64 a0bd
00000070: ae14 6ebc 7f93 94be 5c27 9d3d aaea 7dbd
00000080: 996c 173e f63d 26bd 0aa3 083e 1d06 5e3d
00000090: 0c47 02bd bc41 8dbd 7a74 e1bb beb0 c0bd
000000a0: c58b e7bd 3534 783e 3481 b4bb 338e a8bd
000000b0: b828 51bd 353c 983d ae8f 89bd 91ec 90bd
000000c0: 986f 37bc fec4 33be e8b2 d7bc 20d4 173c
000000d0: 0b7a c2bd 8e54 47bd c482 68bd 5e4b cabd
000000e0: 7269 3bbc c738 4abd f51a d4bc f0a7 38bd
000000f0: 178c 72bd 2127 a3bd 9594 043b 3b84 1c3e
-0.03738444 -0.051045008 -0.037520435 -0.09999958 -0.07390137 -0.058206968 -0.053498283 -0.015893377
-0.16087535 -0.010240013 -0.017680101 -0.04748319 -0.023860758 -0.007687355 -0.04718106 -0.0067328047
0.063922696 0.081469536 -0.14774005 -0.06774204 -0.038975615 -0.010896647 -0.0723168 0.008334404
0.06482499 0.010650678 -0.008460994 -0.07831629 -0.014531298 -0.2901878 0.07673523 -0.06199137
0.1478752 -0.040586434 0.13343444 0.05420505 -0.031806037 -0.068973035 -0.00688034 -0.09408711
-0.11305956 0.24238665 -0.0055085663 -0.08230247 -0.051064223 0.074333586 -0.06716858 -0.070763715
-0.01119604 -0.17555615 -0.026330426 0.009266883 -0.09495934 -0.048664622 -0.056765333 -0.098776564
-0.011438714 -0.049370553 -0.02589176 -0.045082033 -0.05921563 -0.079664476 0.0020230163 0.15284817

sequential_1/conv2d_3/Conv2D f4 [32, 2, 2, 1]
00000000: 91cb 54be ee50 c83d 8f63 473d a8ea 3cbe
00000010: 4b14 2d3e 1a62 98be 18b4 99be ac33 213e
00000020: 9971 97bc 67fe 2c3d ae4e 363d 507e 8ebd
00000030: a11b fdbe f434 893e 207b c03e 977d bc3d
00000040: 7e70 573d c755 10bd 8daa 993d da6c 81bd
00000050: c4bd 813d 73f0 6fbd 302c 053e ef66 42be
00000060: 5270 7dbe 7f55 053f 2e38 a1be 90c2 f0bd
00000070: f4b4 0d3d db0b c1bc 3cdd 69bd c387 343d
00000080: e12a 58bc aed1 0b3d 9e2c 0e3d af2f 8cbd
00000090: f075 b53c ffd3 78bc 7350 1ebd 6435 0c3d
000000a0: 73bd 34bd b4d9 273d 2fa4 2b3d cb0e 98bd
000000b0: fa53 e43d 97ad 5dbe c914 12bd bb2b 95be
000000c0: 3fca 623b f393 a43c ffb0 97bc 9646 acbc
000000d0: 2eac a3bc 0f09 523d 0345 edbc 0538 1d3d
000000e0: 7e35 45bb dd14 fc3b 1348 a4bc ec6a c83c
000000f0: 1534 97bc bfb7 203d 2bb9 df3a f056 18bb
00000100: a23e 00bb f289 2e3c 1d9b 88bd 56c5 563d
00000110: 9cbd 18be a890 273e 47fb 0ebb caf3 8abd
00000120: 5c0c 433d 6588 dabc 062c 973b 5ae3 8f3c
00000130: 9c84 0ebe e525 b33b 10cb 89be cadf 863e
00000140: 20ca 763b 20c8 8b3b e6f8 01bd 7d70 b53c
00000150: d3d9 62b9 54c0 dd3b a8b0 1bbd fd63 203d
00000160: bf52 4b3d c2d5 b4bc 45a8 a4bd 331c 813d
00000170: af51 983b 25d8 15bb a05f a5bc 2c2b 083c
00000180: 5460 27bc facd a53b 8650 f63c ab61 74bd
00000190: 2736 003b 35d5 f53b b392 383d d31f 93bd
000001a0: 5519 31bd ba25 123d e758 cebc e029 9ebc
000001b0: 967e 703c e4cc c9bb eb5d 71bb a6e0 4d3b
000001c0: a963 2c3e 23a8 853d 20f0 2e3f 478e 13bf
000001d0: 83ab f03d 1c16 cfbd 6790 94bd ac7b 143e
000001e0: 9fd5 70bb e73d 7a3c 7fe2 353d b9d3 44bd
000001f0: 8812 1c3d 9a6b cdbc e03c 70bd e031 063d
-0.2078078 0.09781061 0.04867893 -0.1844889 0.16902272 -0.29762346 -0.30020213 0.15742368
-0.018486785 0.042234804 0.04450863 -0.06957686 -0.49435142 0.26798213 0.37593937 0.09203642
0.052597515 -0.035238054 0.07503233 -0.0631959 0.06335023 -0.05857892 0.13005137 -0.18984579
-0.24749878 0.5208358 -0.31488174 -0.1175586 0.0345964 -0.023565223 -0.05709575 0.044074785
-0.013193817 0.034135513 0.03471052 -0.068450324 0.022150964 -0.015187263 -0.03865094 0.034230605
-0.044125985 0.040979102 0.041904625 -0.074246965 0.1114883 -0.2164825 -0.035664354 -0.29134926
0.0034605411 0.020090079 -0.018517016 -0.021029752 -0.019979563 0.05127817 -0.028963571 0.038383503
-0.0030091698 0.007692917 -0.020053899 0.024465047 -0.018457452 0.039237734 0.0017068734 -0.0023245178
-0.0019568582 0.010653006 -0.066702105 0.052434288 -0.1491608 0.16363776 -0.0021817253 -0.0678478
0.04761921 -0.026676366 0.0046134023 0.017564464 -0.13917774 0.005467164 -0.26912737 0.26342613
0.0037657097 0.0042658 -0.03173151 0.022148365 -0.00021634185 0.006767312 -0.03801027 0.039157856
0.04963946 -0.022074584 -0.08039907 0.06304207 0.0046484093 -0.0022864428 -0.0201872 0.008311074
-0.0102158375 0.0050599547 0.030067693 -0.059663456 0.0019563527 0.007502223 0.04506178 -0.07183804
-0.04323705 0.03568051 -0.025188876 -0.019307077 0.014678618 -0.006158458 -0.003682966 0.0031414418
0.16834892 0.0652621 0.6833515 -0.57638973 0.11751463 -0.10111639 -0.07254105 0.14500302
-0.0036748422 0.015273548 0.044405457 -0.048053477 0.03810361 -0.025075722 -0.058651805 0.03276241

sequential_1/conv2d_4/Conv2D f4 [32, 2, 2, 32]
00000000: 84d9 abbd e24b 5cbd 9665 9d3e dadc 003e
00000010: 2b4b 0a3f e9ed 073e a9bc da3d 52a2 863e
00000020: 7fa1 7c3e 60fa 1b3f de6b ba3e d383 aebc
00000030: 1df2 59bc 15f7 2f3d bf0c 533e fa87 843e
00000040: 3416 093f e11c a3be f8aa a5bc 411f 3fbb
00000050: 3dc3 cb3e 2eba bc3e 3fed 013f 3295 dd3d
00000060: 8e6c 873e c231 1b3e 0f47 ba3d b172 b33e
00000070: 5c0b cdbd 35ba af3d 2724 ad3e be23 193f
00000080: 545f f2bd 070f 1a3e d328 6a3e 06af efbd
00000090: 6d73 0f3f 006a 263e d8c9 98bd 984e 1f3f
000000a0: b3c4 d53d 719f 003f da77 773e fb29 a5bd
000000b0: f422 1c3e fa8d 723b 194d b33e 598d 5b3e
000000c0: 6621 683e bd0b 0fbf 9020 c53d c9ad bdbb
000000d0: cbc9 d23e 2591 8c3e a2b9 b13e 7979 143e
000000e0: a438 ab3d ab1c 74be 88b8 acbc e145 093e
000000f0: 6a2e 58be 7dca 803d ebae 4b3e 30cc a53e
00000100: 3f51 453c e7b0 22be 4fa0 4a3e 110b 983d
00000110: fb00 dc3e c912 873e 0eff 903d f9b2 3ebe
00000120: 443e 1d3e 46ca 553d 663d a73d 0063 09be
00000130: 244c 7b3e 2d8e cf3d 3227 37bd 8365 003e
00000140: f9ee 72bd 686a 053d ac5f 18be f0f0 2abe
00000150: 9913 333e acfa 6a3e dd77 10bd f9e4 5b3e
00000160: 3b92 373c f159 973e 247d 563f 53f8 683e
00000170: a31a d23d 0b57 9ebe 350a 22bb b7fc 263e
00000180: 093b d93d ba39 6f3e fd35 223f 1520 87bd
00000190: 260d 9f3e 4e64 de3e f923 84bd 6999 8b3e
000001a0: 19da 523e 4051 083e 9332 083f 07e5 a2bb
000001b0: 5353 953d 8b77 d53e c8ef 363e 1888 683e
000001c0: 9896 cd3e c2ed 9b3e 3cfe c93c 0aa3 bbbd
000001d0: 997b 963e 13df 633e 5dbb 1d3f 4a07 5ebc
000001e0: 18d2 a13e aba4 ce3e c6e3 453f dba2 993e
000001f0: 08f1 2cbd 0ac9 c93c 1720 783d c617 193e
00000200: 5b9a a93b b5ef b73c aee9 fe3e 6adb 083d
00000210: 1707 7f3c 2666 01be e585 91b9 bd9d d93d
00000220: 72c5 483e 9f7b 003e a338 d13e 86fd 05be
00000230: a602 0b3d 710f 88be 339b 3d3e 1895 b83e
00000240: 2eb5 803e 3555 d0bc f61a fcbd 186f 4fbd
00000250: 22b4 863e a991 693e f463 b83e fba4 223d
00000260: d2e1 943e 988c e23c 631f c33e de3a 4a3e
00000270: b744 67be 447e a23d 4126 cd3e 1f97 063e
00000280: b309 a3bc 27c2 933a 585b 813e 7f7d bdbc
00000290: 2aca d63e 6e60 ae3e 062b c53d 0358 813e
000002a0: 01b3 573d e14f b13e 6990 d43e 8144 89bd
000002b0: 9974 293e f7e3 78be 4e3d 423e 15eb 6c3d
000002c0: 5cc0 63bd 1002 563e 5aa5 023e 8c1c 753d
000002d0: 257e 533e 814a 8c3e 5da9 7fbe c69d 243e
000002e0: 1a77 8f3e b99c be3d d2ce b4bd cd13 00bc
000002f0: c334 a1be 8f32 943c d4cf fc3e 75fd 013f
00000300: 4470 18bc 9fe8 ac3d 0a1e fb3d 4905 a33d
00000310: 4ffd 913e fcfa 8abe 0b60 883d d24c fa3d
00000320: 639f efbd 5762 7f3e 6204 573e 12a1 1fbd
00000330: b751 233e 14c9 373f 55b4 d83d 435e 633e
00000340: 18c4 d83c 30bb c93c 22ec 1b3f 51c4 b4bc
00000350: f1f6 d13e 48ea 873e 23af 3e3f 558b 473e
00000360: b2b9 293e 70ba 023f 4797 c63e 208f 423c
00000370: f1e7 09bd 44b6 a73e d432 f03d 79b1 223e
00000380: 4c65 013e 81fe bebd 710a 9c3e f9d1 86bb
00000390: 6928 383e 20a9 013c 27c5 a0be c0af dc3d
000003a0: 2064 2b3e 0c8b 7f3e a18d 943e 6dd6 843c
000003b0: b47a 223e bac2 243d eebd 973e f5d3 983d
000003c0: 5890 293e 406e 72be 982c 493f c057 4e3d
000003d0: 982d 723e 7b65 963e 4f13 573f 297e 2d3e
000003e0: 0bb3 ac3d 18ae a73d f43b df3d f303 26be
000003f0: d986 9dbe 8671 283f 5559 7a3e cedf 45bd
-0.08391097 -0.053783305 0.30741566 0.12584248 0.5402095 0.1327435 0.10680515 0.26295716
0.24670981 0.60928917 0.3641042 -0.021303093 -0.013302353 0.042960245 0.20610331 0.25884992
0.53549504 -0.3185797 -0.020223126 -0.0029162916 0.39797392 0.36860794 0.50752634 0.108194724
0.26450008 0.151557 0.090955846 0.3504844 -0.10011932 0.08580438 0.33816645 0.59820163
-0.11834589 0.15044795 0.22867136 -0.11703305 0.560355 0.16251373 -0.07460374 0.622293
0.10437908 0.5024329 0.24166813 -0.08064648 0.15247709 0.0037010894 0.35019758 0.21440639
0.2266899 -0.55877286 0.096253514 -0.005788539 0.4116958 0.27454486 0.3471194 0.14499463
0.08360413 -0.23839061 -0.021084085 0.13405563 -0.21111456 0.062886216 0.19890945 0.32382345
0.012043296 -0.15887795 0.19787715 0.07423986 0.42969498 0.2638152 0.07079898 -0.1862296
0.15355784 0.052194856 0.08166008 -0.13416672 0.24540764 0.1013454 -0.044715114 0.12538724
-0.059309933 0.03257218 -0.14880246 -0.16693473 0.17487945 0.22947186 -0.03527056 0.21474065
0.011204298 0.29560807 0.837847 0.22750978 0.10258987 -0.30925784 -0.0024725322 0.1630734
0.10606963 0.23361865 0.6336363 -0.06597916 0.3106472 0.434359 -0.06452174 0.2726548
0.2059101 0.13312244 0.5320217 -0.00497115 0.072912835 0.41692767 0.17864907 0.22708166
0.40153956 0.30454832 0.024657361 -0.091619566 0.29391173 0.22253065 0.6161402 -0.013551543
0.316056 0.40360007 0.7730068 0.3000706 -0.042222053 0.024631996 0.06057748 0.14950475
0.0051758713 0.022453168 0.49787658 0.033412375 0.015565655 -0.12636623 -0.00027756314 0.10625789
0.1960657 0.12547158 0.40863523 -0.13084993 0.033938073 -0.2657428 0.18516235 0.3605125
0.2513823 -0.025431255 -0.1230983 -0.050643057 0.26309305 0.22809471 0.36013758 0.03970812
0.29078537 0.027654931 0.38109884 0.19749019 -0.22584806 0.079342395 0.40068248 0.13143586
-0.019902086 0.0011273072 0.25265002 -0.02313113 0.41951114 0.34057945 0.09627347 0.2526246
0.052660946 0.34631255 0.41516426 -0.06702519 0.16548385 -0.24305712 0.18968698 0.05784138
-0.05560337 0.20899224 0.12758389 0.059841678 0.20653589 0.27400592 -0.2496695 0.16075811
0.28020555 0.09307236 -0.0882851 -0.007817221 -0.31485566 0.018090514 0.4937731 0.5077737
-0.00930411 0.084428065 0.12261589 0.079599924 0.28513572 -0.2714461 0.06658944 0.122216836
-0.117003225 0.24939857 0.20997766 -0.038971968 0.1594914 0.71791196 0.105812706 0.22203927
0.026460692 0.02462539 0.60907185 -0.022066267 0.41008714 0.2654593 0.7448599 0.19486745
0.16574743 0.5106573 0.3878729 0.011874944 -0.033668462 0.32756245 0.11728445 0.15888013
0.12636298 -0.093258865 0.30476716 -0.004114386 0.17984165 0.007913858 -0.31400415 0.10775709
0.16737413 0.24955386 0.29014304 0.016215527 0.1586712 0.04022477 0.29637092 0.074623026
0.16558969 -0.2367487 0.7858367 0.050376654 0.23650205 0.29374298 0.8401384 0.16942658
0.08432587 0.081875026 0.10900107 -0.16212444 -0.30766943 0.65798223 0.2444814 -0.04830914

sequential_1/conv2d_5/Conv2D f4 [64, 2, 2, 32]
00000000: eeb5 9b3d 19ef 883e 4803 57bc 7481 fcbb
00000010: 72cc 493e 9622 0dbe 2dfb 0dbe 63ca 643d
00000020: 1c67 2a3e fe53 873e cee2 c13e 43b5 fdbd
00000030: f88a 003e f4f3 463e 7e8f 3dbd b4cb a53e
00000040: 8db4 aa3e 40e1 d5bd 9573 063f 9cc8 94bd
00000050: 8082 d83e 995d 4ebe b5c9 403e 5643 7a3e
00000060: 327e 443e 27a8 683d 3cbf ebbd 78cb 143e
00000070: d7e9 133e 1d33 973e 2590 793e b391 163d
00000080: 5cc8 e73d 3271 363e f6a2 e5bd b8a0 e8bc
00000090: 7d85 66bd ada8 86bd b423 873d 79d5 9cbd
000000a0: 083f 293d cb4b c83e 7343 883e 2456 12bd
000000b0: a85a d93c c3f6 1c3d a48d 263d f280 e03e
000000c0: ff8d 183e 03eb 36bd 4200 d43e 6fa6 48bd
000000d0: 081b b43d c370 343e 6ac1 f33d b4d8 033e
000000e0: 2491 be3e a8af 253e 106b 653d 1436 583e
000000f0: 89d1 c03e c4e9 ea3d 586f d03e a702 0ebe
00000100: aceb ff3d 1e12 55bd caa7 14be 063c b53e
00000110: a94c 2e3e 9034 803c 6e5f e53c cbf9 58bc
00000120: bed2 bc3e 4a3c 913e c37b ba3d 7529 a53d
00000130: ec2f 253d 8fd5 d43a f6dc da3d f289 483e
00000140: 03e1 553e 229f 1cbe 6c2b 213e 8058 7bbd
00000150: c237 503e e6e5 3b3e 3acc 0d3e 65ba a63e
00000160: 06d0 123f e658 5d3e 6612 5bbc ade9 693e
00000170: 01a0 833e 796c 843e 1120 a43e 5619 3e3c
00000180: bdff 753e 545d 13bd 24bd c6bb 825b 923e
00000190: 4156 5f3d c7b0 263d 3028 bdbd 760b 0c3e
000001a0: 94fd 753e 640f 373e 0d00 4e3c d497 42be
000001b0: efe4 b3bc 74c0 3c3e fa29 3c3e aed0 2f3e
000001c0: c708 5b3e 7261 10bd bbdc 0e3e ef9a 6cbd
000001d0: f632 583e 9710 283d 30b4 463e d954 413e
000001e0: f694 863e 74d2 e93d 6ca8 923d f080 ad3d
000001f0: eae8 7b3e 58b9 863e 8592 853e a903 2dbe
00000200: 7444 743e bf48 933e 74fa 48be 23fc 603d
00000210: 605d c13c 1429 4a3d a7bc 71bd 3230 553d
00000220: 2a36 0e3e 6487 bf3e 530f 9f3d ae0a 9c3d
00000230: eeb6 023e ef92 403d 04ee 163e 5bbd 053f
00000240: 5f34 053d 4021 c6bd 00b1 933e 3605 503e
00000250: c210 893e 3c67 17bd a10a 233d 8c81 ed3e
00000260: d02f d73e f322 b2bb 1af9 ad3d ed0b 093e
00000270: 5b96 3c3e 2a43 963e 60d6 c13e 5d1d 39bd
00000280: 77c5 fa3e f765 b13e 906c 053e 391d 3d3d
00000290: 5f4e 683e 2a89 023e a2bc 31be b975 3c3d
000002a0: 6b5a bebd cef7 e53e 84cf fc3e ce35 323e
000002b0: 0ee8 b5bc 7ce5 753e 1592 7bbc 60d2 d23e
000002c0: 4e97 763e e6d1 f1bd c657 683e 093b 273e
000002d0: 03de 063f 9a45 6cbd eb17 f23e 3a24 a33e
000002e0: f352 be3e 3c0c 9a3d cc74 f1bd f03c ad3b
000002f0: 5b3d 2b3e 03b7 5a3e 0b23 a33e dd78 aa3c
00000300: 6510 d73d aa23 313e 1842 633b 3479 263e
00000310: 88fd 3a3d 8895 4a3e a8c1 56bc cc4d 9f3d
00000320: e2e5 a73e 074c 573e f2f7 f33d 2374 36be
00000330: fca4 cb3d 923e c33d 13be 353e ac1f c03e
00000340: b744 b83e 4792 213d 0dbf 9c3e 680a 52be
00000350: 5288 263d 8eac eb3c b459 a93d 935e 1d3e
00000360: 6c34 a73e 6002 ad3e df4d 913c 9e80 71bd
00000370: b3bc ca3e 47f2 d13d 2363 3a3e 60f6 dbbd
00000380: 88fc 5d3e 7e26 a13e 9a84 0fbe 68a6 403e
00000390: 6beb bdbc 66be 7f3d fbc1 1bbc b167 433d
000003a0: a882 673e f89e 483e 1cb6 303e dcb3 7d3c
000003b0: 6617 083d ee96 163d 768f 613e d720 463e
000003c0: 0cdf a23e 36aa 97bd b9fa 843e 462c 22bd
000003d0: 0a5a 993e 2c29 9e3c d5e1 c13d 6ec4 b13e
000003e0: 8a31 fc3e 15f3 703e ca40 37bd 3724 b53e
000003f0: 8ee9 d43e bc44 a03e bccf b13e 4bbc 87bd
0.0760306 0.26744917 -0.013123341 -0.0077058617 0.19706896 -0.13782725 -0.13865347 0.055857074
0.16640896 0.26431268 0.3786835 -0.123880886 0.12553012 0.19428998 -0.046279423 0.32381976
0.33340874 -0.10443354 0.52520114 -0.07264826 0.42287064 -0.20152892 0.18826945 0.24439749
0.19188765 0.056800988 -0.115110844 0.14530742 0.14444672 0.29531184 0.24371393 0.036760043
0.113175124 0.17816618 -0.11212723 -0.02839695 -0.056279648 -0.06575141 0.06598607 -0.07657904
0.041319877 0.39120325 0.2661396 -0.03572668 0.026532486 0.038321268 0.040662423 0.43848377
0.14897917 -0.04465772 0.41406447 -0.04898685 0.08794218 0.1762114 0.11902125 0.12875634
0.37220109 0.16180289 0.056010306 0.21114379 0.37659863 0.114703685 0.4070995 -0.138682
0.12496123 -0.05201923 -0.14517131 0.35397357 0.17021431 0.015650064 0.027999606 -0.013243149
0.36879534 0.2836631 0.09105637 0.08064548 0.040328905 0.0016237962 0.10686676 0.19583872
0.20886616 -0.1529508 0.1573922 -0.061363697 0.2033377 0.18349418 0.13847438 0.32564083
0.5734867 0.21615943 -0.013371086 0.22843046 0.2570801 0.25864008 0.32055715 0.01160272
0.24023338 -0.035977677 -0.006065028 0.2858544 0.054525618 0.04069593 -0.09236181 0.13676247
0.24022514 0.17876965 0.012573254 -0.1900323 -0.02195975 0.1843279 0.18375388 0.17169449
0.21390067 -0.03524918 0.1395139 -0.057764944 0.2111319 0.041031446 0.19404674 0.18880023
0.26285523 0.11417094 0.0716103 0.084718585 0.24600568 0.2631328 0.26088348 -0.16895927
0.23854238 0.28766438 -0.1962679 0.054927956 0.023604095 0.04935558 -0.059017804 0.052047916
0.1388785 0.37407982 0.07766595 0.076192245 0.12765095 0.047015127 0.14739233 0.5224206
0.032520648 -0.09674311 0.28845978 0.20314488 0.26770598 -0.036963686 0.03980506 0.463879
0.42028666 -0.005436295 0.08494778 0.13383456 0.18416731 0.29348117 0.37858868 -0.04519402
0.4897878 0.34648106 0.13029695 0.046170447 0.22686146 0.12747636 -0.17357114 0.046010707
-0.092945896 0.44915622 0.49377072 0.17403337 -0.022205379 0.24013323 -0.015354653 0.41176128
0.24081156 -0.11807613 0.22689733 0.16331114 0.52682513 -0.057683565 0.47283873 0.31863576
0.3717266 0.07521865 -0.11789855 0.0052868053 0.16722624 0.21358876 0.31862673 0.020809585
0.10501174 0.17298761 0.0034676846 0.16257173 0.045651942 0.19783604 -0.013107695 0.077785105
0.32792574 0.21025096 0.11912526 -0.1781774 0.09943578 0.09533419 0.17748289 0.37524164
0.35989925 0.03944614 0.3061451 -0.20511782 0.04065735 0.028768804 0.08269063 0.15368108
0.32657182 0.33790874 0.017737327 -0.05896055 0.3959709 0.10251289 0.1820188 -0.10740352
0.21678364 0.3147468 -0.14015427 0.18813479 -0.023183545 0.062437437 -0.009506698 0.04770631
0.22608435 0.19591892 0.17256969 0.015484776 0.03322544 0.03676503 0.22027382 0.19348465
0.31810796 -0.07405512 0.25972536 -0.039593004 0.29951507 0.019306742 0.09466902 0.34720176
0.49256545 0.23530228 -0.044739522 0.35379192 0.41584438 0.3130244 0.347288 -0.06627711

sequential_1/dense_2/BiasAdd/ReadVariableOp f4 [64]
00000000: 3cb2 3a3f d06d 203f e0ab 463f a8e5 23be
00000010: e039 a9bd 2acf 8abd 9177 323f 62ed 80bd
00000020: df36 1e3f e091 563f 791e 4c3f 2818 463f
00000030: 2a5d 183f a21f 283f 0cc7 283f 8287 343f
00000040: 224d 78bd a1d6 463f 390b 423b 0120 043f
00000050: 6d26 b0bd 0391 443f 6b6c 42be 3aa0 3d3f
00000060: fa45 543f 3070 1b3f 5eac 203f d020 1dbe
00000070: 2d7c bbbb 8047 3a3f 3ed0 863f d845 6a3c
00000080: 6f9b 373f 36d2 2c3f 244e 343f 6d42 6bbe
00000090: 1439 50bd 5662 30be 93e9 4a3f 1db4 413f
000000a0: 453a 98bd de7e 223f 3092 73ba c3c9 2f3f
000000b0: 938e dcbd 5e3a 87be daa4 573f 561f edbd
000000c0: 73f9 1e3f 8ab5 343f 00b6 153d 7448 4e3f
000000d0: e470 33bd 3702 503f c08b bb3c 90b1 51be
000000e0: 23f8 a33e 24b9 fabd 8776 51bd 23b0 573f
000000f0: 8a62 87be 6552 e83e 922f 2b3f 8ace 5d3f
0.72928214 0.6266756 0.7760601 -0.16005576 -0.08262992 -0.06777795 0.69713694 -0.06295277
0.61802477 0.8381634 0.79734 0.7738061 0.5951716 0.6567327 0.6592872 0.7051927
-0.060620435 0.7767125 0.002960874 0.51611334 -0.08601079 0.7678377 -0.1898667 0.7407261
0.82919276 0.6071806 0.6276301 -0.15344548 -0.00572159 0.7276535 1.05323 0.014298879
0.7172155 0.67508256 0.70431733 -0.22974558 -0.050835684 -0.17225012 0.79262656 0.75665456
-0.07432989 0.63474834 -0.0009291498 0.6866724 -0.107693814 -0.26411718 0.8423592 -0.115782425
0.6209938 0.70589507 0.03655052 0.80579305 -0.043808833 0.8125338 0.022893786 -0.20477891
0.3202525 -0.12242344 -0.051138427 0.8425314 -0.26442367 0.45375362 0.6686946 0.8664328

sequential_1/dense_2/MatMul f4 [64, 64]
00000000: a76c 693d e911 403e 049c 6abe a2fc a13d
00000010: 5b0a 853e 736a 233d 1367 06be e41e 9b3e
00000020: 53b6 76be 3cae 0c3e 84ba 303e 3c5f be3d
00000030: 9303 94bd df55 e73e de8b 153e a25e f13e
00000040: a5f5 913c c850 243e 184f 68be a0f9 d3bc
00000050: f954 2f3d 214d 183e a221 b63d cc8b 273e
00000060: 1028 243f 5a4e 603e d593 003d 9028 6f3d
00000070: 24ea 823e 00a1 e0bd 2878 bb3e 2e73 b43d
00000080: 242d 5c3e 4686 fabd 0c13 253f 86d6 b73e
00000090: a43d 703c efd5 8abd 6817 083e cb67 a23e
000000a0: 4951 b6bd 2e06 13bd 4c43 d53d 5509 183e
000000b0: 92cd ef3e 484a dd3e 4077 3a3e db4a e7bd
000000c0: 56d3 9a3e a44b 1dbe e579 14be 125b 833e
000000d0: 8359 9c3e e817 3f3e a04b 543e d40d bb3e
000000e0: 2ba1 a53e c33f da3c 7de2 123f 5c64 053d
000000f0: 00c8 6c3e 805a 25bd b259 363d 3320 473f
00000100: bdde ba3d 0ce0 983e 99e8 80bd 9014 d73c
00000110: a790 843e 59fd 8cbd 15a6 90bd 448b db3d
00000120: e683 abbe 0d0d cebd 7581 8c3e f631 a53e
00000130: 201a 45bd 02f7 863e 1ab3 333e beef 8b3e
00000140: b0a1 80bd 6842 c93e 908e 88be 6841 e83d
00000150: 114f 5d3d 06cf 193d 216a 003d 2571 103e
00000160: 863f 4e3f ae34 cf3c 517b 663e 5415 853d
00000170: 28c8 373c 53e8 ed3b b728 973e eee5 143c
00000180: 9355 453d 6e7c c3bc c4a0 103f 784c d23e
00000190: 9302 10be 6b26 713d 0b86 e63e 962a 553e
000001a0: fb98 a5be 7125 863d 2e67 773e a5c7 d2bd
000001b0: badb 433e 2bbe ce3e fe39 a23d 67e3 c7bd
000001c0: 2159 bd3e 513e 1dbe 1e92 4ebd 18ee dd3d
000001d0: 05d0 253e 45eb b93e 98d9 f73d 9dd3 a73e
000001e0: 7912 0d3f 3096 603e de13 c63e bd35 cd3d
000001f0: ed74 683e e561 01be dd79 70be 8715 533f
00000200: 9ded c43e 0e55 5a3e 9f57 303e ec50 9f3d
00000210: 6c02 cf3e c174 9c3d 37f0 6ebd 0be2 a63e
00000220: 2040 8e3e babb d93e 59c1 db3e 3c27 543e
00000230: 7ca6 c23c 39f1 f03e da84 e33e 684a 313e
00000240: ac44 3c3c 9b91 3a3e cc6f 17be 205d 963e
00000250: ad06 f83d 0f9f b33e 48bd cb3d 1e8c 9a3e
00000260: 8d3c 0b3f 25da ef3b 1266 ac3e 131a c63e
00000270: e0cc 603e eb14 77be 93bb cf3e 2034 843e
00000280: 9504 ec3e 569a cd3e 40e2 823f cf3a ee3e
00000290: 5d12 cdbd e48c f93d d6bb e83e a89c 8f3e
000002a0: b4af 03bd 5f43 08bd 25f1 4d3e 3032 ff3e
000002b0: 0eef e53e a712 0d3f 4dcd 2e3e cbe5 d6bc
000002c0: 4681 483e 42ae 03bf 134e 27be 07ce aa3e
000002d0: 064b 583e 19c3 073f c779 1d3e 1f22 223f
000002e0: 4458 283f e1a9 273e 46e7 373f e654 593e
000002f0: 9e3d 233f dace 4bbe a970 1f3e 20e9 d13e
00000300: 82a9 6a3e 497b 543d 48a7 b23e ad5b 093e
00000310: 0270 013e fca7 813c 3912 f33d d932 563d
00000320: 7d8e ac3e 9f5a 413e d41d c0bd 5fcd 2bbe
00000330: 1946 7a3d 5991 13bd 1878 673d b9a5 853e
00000340: bcf1 f6bb e8d1 f0bd 86d7 9a3e 8dc2 3a3d
00000350: 4369 5c3e 81be 513e c52e 9abd 6925 96be
00000360: aa9f 0dbf d29f 09be 1291 87bd e6d8 f03d
00000370: 3e99 b53d 08db 553c c865 523d f6ba 7cbd
00000380: bcb5 1ebe 83bc c0bc b444 4a3e 3270 43be
00000390: 6d0c 30be 5804 06be c6c9 28bd 0ed7 163e
000003a0: 7fe9 8d3d 233b 7cbe bc57 283e f774 283e
000003b0: 5a9f 6a3e f70b 613c 0425 353e a4ff 32bc
000003c0: 8630 4abd 0292 943e a4b7 b83d 30bb 2b3e
000003d0: e525 35bb 6b4c 31bd bdf5 8b3c 8f9c 3d3e
000003e0: a282 b1bd 9293 bfbd 0a33 393d c9a0 7d3d
000003f0: 5ee8 8a3c 4c84 e93d c60f 113d bba0 61be
0.056988385 0.18756832 -0.22911078 0.07909514 0.25984463 0.03989644 -0.13125257 0.30297005
-0.24092989 0.1373834 0.1725865 0.09295508 -0.07227244 0.45182702 0.14604136 0.47142512
0.017817328 0.1604644 -0.22686422 -0.025875866 0.042805646 0.14873172 0.08893134 0.16361922
0.6412363 0.21904889 0.031390984 0.058388293 0.2556926 -0.10968208 0.3661511 0.08811031
0.21501595 -0.12232642 0.6448219 0.35905856 0.014663134 -0.06779086 0.13290179 0.31719813
-0.08902223 -0.035894565 0.104132265 0.1484731 0.46836525 0.43220735 0.18209553 -0.112935744
0.30239362 -0.15360886 -0.14499624 0.2565542 0.30537042 0.18661463 0.20731974 0.36533988
0.32349524 0.026641732 0.57376844 0.032566413 0.23123169 -0.04036951 0.044519134 0.7778351
0.09124515 0.29858434 -0.062943645 0.026254922 0.2589161 -0.0688426 -0.07062928 0.10719922
-0.33499068 -0.10061083 0.27442518 0.3226468 -0.048120618 0.26360327 0.1754879 0.27331346
-0.062808394 0.39308476 -0.26671267 0.113406 0.05403048 0.03755095 0.031351212 0.14105661
0.8056568 0.025293674 0.22507979 0.06498209 0.011217155 0.007260361 0.2952325 0.009088023
0.048177313 -0.023863044 0.5649531 0.41073966 -0.14063482 0.05887453 0.45024142 0.20817026
-0.32343277 0.0655011 0.24160454 -0.102919854 0.19126788 0.40379462 0.079212174 -0.097601704
0.36982062 -0.15355803 -0.050432317 0.108364284 0.16192634 0.3631231 0.121020496 0.32778636
0.5510631 0.21932292 0.38687032 0.100200154 0.22700854 -0.12635 -0.23483987 0.82454723
0.38462535 0.21321508 0.17220925 0.077791065 0.40431535 0.076394565 -0.058334555 0.32594332
0.27783298 0.42526037 0.4292095 0.20718092 0.023761027 0.47059038 0.44437295 0.1731354
0.011490982 0.18219607 -0.14788741 0.29367924 0.12110648 0.3508229 0.09948212 0.30185026
0.5438927 0.007319706 0.33671623 0.38691768 0.21953154 -0.24129073 0.40572795 0.25821018
0.46097246 0.4015681 1.0225296 0.46529242 -0.10013268 0.12185076 0.45455807 0.28049207
-0.032149985 -0.033267375 0.2011152 0.49842978 0.44908947 0.55106586 0.17070504 -0.02623262
0.19580564 -0.5143777 -0.16338377 0.3336031 0.21122369 0.5303207 0.15378486 0.63333315
0.6575968 0.16373397 0.7183727 0.21223792 0.63765895 -0.19903126 0.1557032 0.40998173
0.22916225 0.051875386 0.3489325 0.13413878 0.12640384 0.015827172 0.1186871 0.052294586
0.3370246 0.18882225 -0.09380689 -0.16777562 0.061102007 -0.036027286 0.056511015 0.26103
-0.007536141 -0.117587864 0.30242556 0.045595694 0.21524529 0.20482828 -0.07528452 -0.29325417
-0.55321753 -0.13439873 -0.06619467 0.1176012 0.08867119 0.013052709 0.051366597 -0.061701737
-0.15499014 -0.02352739 0.1975277 -0.19085768 -0.1719224 -0.13087595 -0.04120805 0.14730474
0.069293015 -0.24631934 0.16439718 0.16450869 0.2291235 0.013735763 0.17689902 -0.010925207
-0.04936268 0.29017645 0.09019402 0.16770625 -0.0027640995 -0.04328577 0.01708495 0.18516754
-0.08667494 -0.09354319 0.04521469 0.061920915 0.016956504 0.11402187 0.035415433 -0.2203397

sequential_1/dense_3/MatMul f4 [1, 64]
00000000: 6484 dbbd df63 51be 2e12 bbbc d822 683e
00000010: 4c8a 953e becf e23d fc22 28be f9e8 103f
00000020: 035f 56be b483 6dbe a598 01be 23d0 6ebe
00000030: e8af 83be 4730 efbd ce16 babe 0699 85be
00000040: 8a8f d43e 1259 44be 8506 f83d 665d 80be
00000050: 1224 b23e 3415 b3be ee57 d43e e055 1dbe
00000060: 3207 52bd 4727 8bbe 90b8 92be e13f 9a3e
00000070: e7b3 933e 7eef 75be 72b3 1bbe b2dc 903e
00000080: 60a4 38be 00e8 35be e353 29be 022d 5e3e
00000090: 4d2d a13d 47e4 f13e 053e eebd 7439 38be
000000a0: 8834 1d3e 0e6e 27be c50e 043f 77af 2cbe
000000b0: 1f13 3e3e b2ba 943d 7676 68be 926e cf3d
000000c0: 78d6 4ebe c005 bebd cab1 c43e 8e98 28bd
000000d0: 0d26 2f3e 03a9 67be a9f6 a03e 05e1 5d3e
000000e0: 60a2 c6be 38ee b23d e880 413d ccfd 64bd
000000f0: 61d5 6d3d b3bb 4abe 7485 85be 5935 59be
-0.10718611 -0.20448254 -0.022835817 0.22669542 0.29207075 0.1107478 -0.16419595 0.5660549
-0.20934682 -0.23194772 -0.12655886 -0.23321585 -0.25720143 -0.1167913 -0.36345524 -0.2609331
0.41515762 -0.19174603 0.121106185 -0.25071257 0.34793144 -0.34977114 0.41473335 -0.1536479
-0.051276393 -0.27178404 -0.28656435 0.3012686 0.28848192 -0.2401714 -0.15205172 0.28293377
-0.18031454 -0.17764282 -0.16535906 0.21696857 0.078699686 0.47244474 -0.11632923 -0.17990667
0.1535207 -0.16350576 0.51585037 -0.1686381 0.18561982 0.07262172 -0.2270144 0.101285115
-0.20199001 -0.092784405 0.38416892 -0.041161112 0.17104359 -0.22623067 0.31438187 0.2166787
-0.38795757 0.08736843 0.047242075 -0.055906102 0.058064822 -0.19798164 -0.2607838 -0.21211757
